…
train: C:\Users\ohxua\Documents\FYP 2 Training\OG Vision AR Project\face_shape_detector\dataset\split\images\train... found 3200 images in 5 classes  
val: C:\Users\ohxua\Documents\FYP 2 Training\OG Vision AR Project\face_shape_detector\dataset\split\images\val... found 800 images in 5 classes  
test: C:\Users\ohxua\Documents\FYP 2 Training\OG Vision AR Project\face_shape_detector\dataset\split\images\test... found 1000 images in 5 classes  
Overriding model.yaml nc=1000 with nc=5

                   from  n    params  module                                       arguments                     
  0                  -1  1       464  ultralytics.nn.modules.conv.Conv             [3, 16, 3, 2]                 
  1                  -1  1      4672  ultralytics.nn.modules.conv.Conv             [16, 32, 3, 2]                
  2                  -1  1      7360  ultralytics.nn.modules.block.C2f             [32, 32, 1, True]             
  3                  -1  1     18560  ultralytics.nn.modules.conv.Conv             [32, 64, 3, 2]                
  4                  -1  2     49664  ultralytics.nn.modules.block.C2f             [64, 64, 2, True]             
  5                  -1  1     73984  ultralytics.nn.modules.conv.Conv             [64, 128, 3, 2]               
  6                  -1  2    197632  ultralytics.nn.modules.block.C2f             [128, 128, 2, True]           
  7                  -1  1    295424  ultralytics.nn.modules.conv.Conv             [128, 256, 3, 2]              
  8                  -1  1    460288  ultralytics.nn.modules.block.C2f             [256, 256, 1, True]           
  9                  -1  1    336645  ultralytics.nn.modules.head.Classify         [256, 5]                      
YOLOv8n-cls summary: 56 layers, 1,444,693 parameters, 1,444,693 gradients, 3.4 GFLOPs
Transferred 156/158 items from pretrained weights
train: Fast image access  (ping: 0.30.1 ms, read: 146.280.1 MB/s, size: 160.8 KB)
train: Scanning C:\Users\ohxua\Documents\FYP 2 Training\OG Vision AR Project\face_shape_detector\da
train: Scanning C:\Users\ohxua\Documents\FYP 2 Training\OG Vision AR Project\face_shape_detector\da
…
