{"format": "layers-model", "generatedBy": "keras v2.13.1", "convertedBy": "TensorFlow.js Converter v3.18.0", "modelTopology": {"keras_version": "2.13.1", "backend": "tensorflow", "model_config": {"class_name": "Functional", "config": {"name": "model", "trainable": true, "layers": [{"class_name": "InputLayer", "config": {"batch_input_shape": [null, 224, 224, 3], "dtype": "float32", "sparse": false, "ragged": false, "name": "input_1"}, "name": "input_1", "inbound_nodes": []}, {"class_name": "Conv2D", "config": {"name": "Conv1", "trainable": false, "dtype": "float32", "filters": 32, "kernel_size": [3, 3], "strides": [2, 2], "padding": "same", "data_format": "channels_last", "dilation_rate": [1, 1], "groups": 1, "activation": "linear", "use_bias": false, "kernel_initializer": {"module": "keras.initializers", "class_name": "GlorotUniform", "config": {"seed": null}, "registered_name": null}, "bias_initializer": {"module": "keras.initializers", "class_name": "Zeros", "config": {}, "registered_name": null}, "kernel_regularizer": null, "bias_regularizer": null, "activity_regularizer": null, "kernel_constraint": null, "bias_constraint": null}, "name": "Conv1", "inbound_nodes": [[["input_1", 0, 0, {}]]]}, {"class_name": "BatchNormalization", "config": {"name": "bn_Conv1", "trainable": false, "dtype": "float32", "axis": [3], "momentum": 0.999, "epsilon": 0.001, "center": true, "scale": true, "beta_initializer": {"module": "keras.initializers", "class_name": "Zeros", "config": {}, "registered_name": null}, "gamma_initializer": {"module": "keras.initializers", "class_name": "Ones", "config": {}, "registered_name": null}, "moving_mean_initializer": {"module": "keras.initializers", "class_name": "Zeros", "config": {}, "registered_name": null}, "moving_variance_initializer": {"module": "keras.initializers", "class_name": "Ones", "config": {}, "registered_name": null}, "beta_regularizer": null, "gamma_regularizer": null, "beta_constraint": null, "gamma_constraint": null}, "name": "bn_Conv1", "inbound_nodes": [[["Conv1", 0, 0, {}]]]}, {"class_name": "ReLU", "config": {"name": "Conv1_relu", "trainable": false, "dtype": "float32", "max_value": 6.0, "negative_slope": 0.0, "threshold": 0.0}, "name": "Conv1_relu", "inbound_nodes": [[["bn_Conv1", 0, 0, {}]]]}, {"class_name": "DepthwiseConv2D", "config": {"name": "expanded_conv_depthwise", "trainable": false, "dtype": "float32", "kernel_size": [3, 3], "strides": [1, 1], "padding": "same", "data_format": "channels_last", "dilation_rate": [1, 1], "groups": 1, "activation": "linear", "use_bias": false, "bias_initializer": {"module": "keras.initializers", "class_name": "Zeros", "config": {}, "registered_name": null}, "bias_regularizer": null, "activity_regularizer": null, "bias_constraint": null, "depth_multiplier": 1, "depthwise_initializer": {"module": "keras.initializers", "class_name": "GlorotUniform", "config": {"seed": null}, "registered_name": null}, "depthwise_regularizer": null, "depthwise_constraint": null}, "name": "expanded_conv_depthwise", "inbound_nodes": [[["Conv1_relu", 0, 0, {}]]]}, {"class_name": "BatchNormalization", "config": {"name": "expanded_conv_depthwise_BN", "trainable": false, "dtype": "float32", "axis": [3], "momentum": 0.999, "epsilon": 0.001, "center": true, "scale": true, "beta_initializer": {"module": "keras.initializers", "class_name": "Zeros", "config": {}, "registered_name": null}, "gamma_initializer": {"module": "keras.initializers", "class_name": "Ones", "config": {}, "registered_name": null}, "moving_mean_initializer": {"module": "keras.initializers", "class_name": "Zeros", "config": {}, "registered_name": null}, "moving_variance_initializer": {"module": "keras.initializers", "class_name": "Ones", "config": {}, "registered_name": null}, "beta_regularizer": null, "gamma_regularizer": null, "beta_constraint": null, "gamma_constraint": null}, "name": "expanded_conv_depthwise_BN", "inbound_nodes": [[["expanded_conv_depthwise", 0, 0, {}]]]}, {"class_name": "ReLU", "config": {"name": "expanded_conv_depthwise_relu", "trainable": false, "dtype": "float32", "max_value": 6.0, "negative_slope": 0.0, "threshold": 0.0}, "name": "expanded_conv_depthwise_relu", "inbound_nodes": [[["expanded_conv_depthwise_BN", 0, 0, {}]]]}, {"class_name": "Conv2D", "config": {"name": "expanded_conv_project", "trainable": false, "dtype": "float32", "filters": 16, "kernel_size": [1, 1], "strides": [1, 1], "padding": "same", "data_format": "channels_last", "dilation_rate": [1, 1], "groups": 1, "activation": "linear", "use_bias": false, "kernel_initializer": {"module": "keras.initializers", "class_name": "GlorotUniform", "config": {"seed": null}, "registered_name": null}, "bias_initializer": {"module": "keras.initializers", "class_name": "Zeros", "config": {}, "registered_name": null}, "kernel_regularizer": null, "bias_regularizer": null, "activity_regularizer": null, "kernel_constraint": null, "bias_constraint": null}, "name": "expanded_conv_project", "inbound_nodes": [[["expanded_conv_depthwise_relu", 0, 0, {}]]]}, {"class_name": "BatchNormalization", "config": {"name": "expanded_conv_project_BN", "trainable": false, "dtype": "float32", "axis": [3], "momentum": 0.999, "epsilon": 0.001, "center": true, "scale": true, "beta_initializer": {"module": "keras.initializers", "class_name": "Zeros", "config": {}, "registered_name": null}, "gamma_initializer": {"module": "keras.initializers", "class_name": "Ones", "config": {}, "registered_name": null}, "moving_mean_initializer": {"module": "keras.initializers", "class_name": "Zeros", "config": {}, "registered_name": null}, "moving_variance_initializer": {"module": "keras.initializers", "class_name": "Ones", "config": {}, "registered_name": null}, "beta_regularizer": null, "gamma_regularizer": null, "beta_constraint": null, "gamma_constraint": null}, "name": "expanded_conv_project_BN", "inbound_nodes": [[["expanded_conv_project", 0, 0, {}]]]}, {"class_name": "Conv2D", "config": {"name": "block_1_expand", "trainable": false, "dtype": "float32", "filters": 96, "kernel_size": [1, 1], "strides": [1, 1], "padding": "same", "data_format": "channels_last", "dilation_rate": [1, 1], "groups": 1, "activation": "linear", "use_bias": false, "kernel_initializer": {"module": "keras.initializers", "class_name": "GlorotUniform", "config": {"seed": null}, "registered_name": null}, "bias_initializer": {"module": "keras.initializers", "class_name": "Zeros", "config": {}, "registered_name": null}, "kernel_regularizer": null, "bias_regularizer": null, "activity_regularizer": null, "kernel_constraint": null, "bias_constraint": null}, "name": "block_1_expand", "inbound_nodes": [[["expanded_conv_project_BN", 0, 0, {}]]]}, {"class_name": "BatchNormalization", "config": {"name": "block_1_expand_BN", "trainable": false, "dtype": "float32", "axis": [3], "momentum": 0.999, "epsilon": 0.001, "center": true, "scale": true, "beta_initializer": {"module": "keras.initializers", "class_name": "Zeros", "config": {}, "registered_name": null}, "gamma_initializer": {"module": "keras.initializers", "class_name": "Ones", "config": {}, "registered_name": null}, "moving_mean_initializer": {"module": "keras.initializers", "class_name": "Zeros", "config": {}, "registered_name": null}, "moving_variance_initializer": {"module": "keras.initializers", "class_name": "Ones", "config": {}, "registered_name": null}, "beta_regularizer": null, "gamma_regularizer": null, "beta_constraint": null, "gamma_constraint": null}, "name": "block_1_expand_BN", "inbound_nodes": [[["block_1_expand", 0, 0, {}]]]}, {"class_name": "ReLU", "config": {"name": "block_1_expand_relu", "trainable": false, "dtype": "float32", "max_value": 6.0, "negative_slope": 0.0, "threshold": 0.0}, "name": "block_1_expand_relu", "inbound_nodes": [[["block_1_expand_BN", 0, 0, {}]]]}, {"class_name": "ZeroPadding2D", "config": {"name": "block_1_pad", "trainable": false, "dtype": "float32", "padding": [[0, 1], [0, 1]], "data_format": "channels_last"}, "name": "block_1_pad", "inbound_nodes": [[["block_1_expand_relu", 0, 0, {}]]]}, {"class_name": "DepthwiseConv2D", "config": {"name": "block_1_depthwise", "trainable": false, "dtype": "float32", "kernel_size": [3, 3], "strides": [2, 2], "padding": "valid", "data_format": "channels_last", "dilation_rate": [1, 1], "groups": 1, "activation": "linear", "use_bias": false, "bias_initializer": {"module": "keras.initializers", "class_name": "Zeros", "config": {}, "registered_name": null}, "bias_regularizer": null, "activity_regularizer": null, "bias_constraint": null, "depth_multiplier": 1, "depthwise_initializer": {"module": "keras.initializers", "class_name": "GlorotUniform", "config": {"seed": null}, "registered_name": null}, "depthwise_regularizer": null, "depthwise_constraint": null}, "name": "block_1_depthwise", "inbound_nodes": [[["block_1_pad", 0, 0, {}]]]}, {"class_name": "BatchNormalization", "config": {"name": "block_1_depthwise_BN", "trainable": false, "dtype": "float32", "axis": [3], "momentum": 0.999, "epsilon": 0.001, "center": true, "scale": true, "beta_initializer": {"module": "keras.initializers", "class_name": "Zeros", "config": {}, "registered_name": null}, "gamma_initializer": {"module": "keras.initializers", "class_name": "Ones", "config": {}, "registered_name": null}, "moving_mean_initializer": {"module": "keras.initializers", "class_name": "Zeros", "config": {}, "registered_name": null}, "moving_variance_initializer": {"module": "keras.initializers", "class_name": "Ones", "config": {}, "registered_name": null}, "beta_regularizer": null, "gamma_regularizer": null, "beta_constraint": null, "gamma_constraint": null}, "name": "block_1_depthwise_BN", "inbound_nodes": [[["block_1_depthwise", 0, 0, {}]]]}, {"class_name": "ReLU", "config": {"name": "block_1_depthwise_relu", "trainable": false, "dtype": "float32", "max_value": 6.0, "negative_slope": 0.0, "threshold": 0.0}, "name": "block_1_depthwise_relu", "inbound_nodes": [[["block_1_depthwise_BN", 0, 0, {}]]]}, {"class_name": "Conv2D", "config": {"name": "block_1_project", "trainable": false, "dtype": "float32", "filters": 24, "kernel_size": [1, 1], "strides": [1, 1], "padding": "same", "data_format": "channels_last", "dilation_rate": [1, 1], "groups": 1, "activation": "linear", "use_bias": false, "kernel_initializer": {"module": "keras.initializers", "class_name": "GlorotUniform", "config": {"seed": null}, "registered_name": null}, "bias_initializer": {"module": "keras.initializers", "class_name": "Zeros", "config": {}, "registered_name": null}, "kernel_regularizer": null, "bias_regularizer": null, "activity_regularizer": null, "kernel_constraint": null, "bias_constraint": null}, "name": "block_1_project", "inbound_nodes": [[["block_1_depthwise_relu", 0, 0, {}]]]}, {"class_name": "BatchNormalization", "config": {"name": "block_1_project_BN", "trainable": false, "dtype": "float32", "axis": [3], "momentum": 0.999, "epsilon": 0.001, "center": true, "scale": true, "beta_initializer": {"module": "keras.initializers", "class_name": "Zeros", "config": {}, "registered_name": null}, "gamma_initializer": {"module": "keras.initializers", "class_name": "Ones", "config": {}, "registered_name": null}, "moving_mean_initializer": {"module": "keras.initializers", "class_name": "Zeros", "config": {}, "registered_name": null}, "moving_variance_initializer": {"module": "keras.initializers", "class_name": "Ones", "config": {}, "registered_name": null}, "beta_regularizer": null, "gamma_regularizer": null, "beta_constraint": null, "gamma_constraint": null}, "name": "block_1_project_BN", "inbound_nodes": [[["block_1_project", 0, 0, {}]]]}, {"class_name": "Conv2D", "config": {"name": "block_2_expand", "trainable": false, "dtype": "float32", "filters": 144, "kernel_size": [1, 1], "strides": [1, 1], "padding": "same", "data_format": "channels_last", "dilation_rate": [1, 1], "groups": 1, "activation": "linear", "use_bias": false, "kernel_initializer": {"module": "keras.initializers", "class_name": "GlorotUniform", "config": {"seed": null}, "registered_name": null}, "bias_initializer": {"module": "keras.initializers", "class_name": "Zeros", "config": {}, "registered_name": null}, "kernel_regularizer": null, "bias_regularizer": null, "activity_regularizer": null, "kernel_constraint": null, "bias_constraint": null}, "name": "block_2_expand", "inbound_nodes": [[["block_1_project_BN", 0, 0, {}]]]}, {"class_name": "BatchNormalization", "config": {"name": "block_2_expand_BN", "trainable": false, "dtype": "float32", "axis": [3], "momentum": 0.999, "epsilon": 0.001, "center": true, "scale": true, "beta_initializer": {"module": "keras.initializers", "class_name": "Zeros", "config": {}, "registered_name": null}, "gamma_initializer": {"module": "keras.initializers", "class_name": "Ones", "config": {}, "registered_name": null}, "moving_mean_initializer": {"module": "keras.initializers", "class_name": "Zeros", "config": {}, "registered_name": null}, "moving_variance_initializer": {"module": "keras.initializers", "class_name": "Ones", "config": {}, "registered_name": null}, "beta_regularizer": null, "gamma_regularizer": null, "beta_constraint": null, "gamma_constraint": null}, "name": "block_2_expand_BN", "inbound_nodes": [[["block_2_expand", 0, 0, {}]]]}, {"class_name": "ReLU", "config": {"name": "block_2_expand_relu", "trainable": false, "dtype": "float32", "max_value": 6.0, "negative_slope": 0.0, "threshold": 0.0}, "name": "block_2_expand_relu", "inbound_nodes": [[["block_2_expand_BN", 0, 0, {}]]]}, {"class_name": "DepthwiseConv2D", "config": {"name": "block_2_depthwise", "trainable": false, "dtype": "float32", "kernel_size": [3, 3], "strides": [1, 1], "padding": "same", "data_format": "channels_last", "dilation_rate": [1, 1], "groups": 1, "activation": "linear", "use_bias": false, "bias_initializer": {"module": "keras.initializers", "class_name": "Zeros", "config": {}, "registered_name": null}, "bias_regularizer": null, "activity_regularizer": null, "bias_constraint": null, "depth_multiplier": 1, "depthwise_initializer": {"module": "keras.initializers", "class_name": "GlorotUniform", "config": {"seed": null}, "registered_name": null}, "depthwise_regularizer": null, "depthwise_constraint": null}, "name": "block_2_depthwise", "inbound_nodes": [[["block_2_expand_relu", 0, 0, {}]]]}, {"class_name": "BatchNormalization", "config": {"name": "block_2_depthwise_BN", "trainable": false, "dtype": "float32", "axis": [3], "momentum": 0.999, "epsilon": 0.001, "center": true, "scale": true, "beta_initializer": {"module": "keras.initializers", "class_name": "Zeros", "config": {}, "registered_name": null}, "gamma_initializer": {"module": "keras.initializers", "class_name": "Ones", "config": {}, "registered_name": null}, "moving_mean_initializer": {"module": "keras.initializers", "class_name": "Zeros", "config": {}, "registered_name": null}, "moving_variance_initializer": {"module": "keras.initializers", "class_name": "Ones", "config": {}, "registered_name": null}, "beta_regularizer": null, "gamma_regularizer": null, "beta_constraint": null, "gamma_constraint": null}, "name": "block_2_depthwise_BN", "inbound_nodes": [[["block_2_depthwise", 0, 0, {}]]]}, {"class_name": "ReLU", "config": {"name": "block_2_depthwise_relu", "trainable": false, "dtype": "float32", "max_value": 6.0, "negative_slope": 0.0, "threshold": 0.0}, "name": "block_2_depthwise_relu", "inbound_nodes": [[["block_2_depthwise_BN", 0, 0, {}]]]}, {"class_name": "Conv2D", "config": {"name": "block_2_project", "trainable": false, "dtype": "float32", "filters": 24, "kernel_size": [1, 1], "strides": [1, 1], "padding": "same", "data_format": "channels_last", "dilation_rate": [1, 1], "groups": 1, "activation": "linear", "use_bias": false, "kernel_initializer": {"module": "keras.initializers", "class_name": "GlorotUniform", "config": {"seed": null}, "registered_name": null}, "bias_initializer": {"module": "keras.initializers", "class_name": "Zeros", "config": {}, "registered_name": null}, "kernel_regularizer": null, "bias_regularizer": null, "activity_regularizer": null, "kernel_constraint": null, "bias_constraint": null}, "name": "block_2_project", "inbound_nodes": [[["block_2_depthwise_relu", 0, 0, {}]]]}, {"class_name": "BatchNormalization", "config": {"name": "block_2_project_BN", "trainable": false, "dtype": "float32", "axis": [3], "momentum": 0.999, "epsilon": 0.001, "center": true, "scale": true, "beta_initializer": {"module": "keras.initializers", "class_name": "Zeros", "config": {}, "registered_name": null}, "gamma_initializer": {"module": "keras.initializers", "class_name": "Ones", "config": {}, "registered_name": null}, "moving_mean_initializer": {"module": "keras.initializers", "class_name": "Zeros", "config": {}, "registered_name": null}, "moving_variance_initializer": {"module": "keras.initializers", "class_name": "Ones", "config": {}, "registered_name": null}, "beta_regularizer": null, "gamma_regularizer": null, "beta_constraint": null, "gamma_constraint": null}, "name": "block_2_project_BN", "inbound_nodes": [[["block_2_project", 0, 0, {}]]]}, {"class_name": "Add", "config": {"name": "block_2_add", "trainable": false, "dtype": "float32"}, "name": "block_2_add", "inbound_nodes": [[["block_1_project_BN", 0, 0, {}], ["block_2_project_BN", 0, 0, {}]]]}, {"class_name": "Conv2D", "config": {"name": "block_3_expand", "trainable": false, "dtype": "float32", "filters": 144, "kernel_size": [1, 1], "strides": [1, 1], "padding": "same", "data_format": "channels_last", "dilation_rate": [1, 1], "groups": 1, "activation": "linear", "use_bias": false, "kernel_initializer": {"module": "keras.initializers", "class_name": "GlorotUniform", "config": {"seed": null}, "registered_name": null}, "bias_initializer": {"module": "keras.initializers", "class_name": "Zeros", "config": {}, "registered_name": null}, "kernel_regularizer": null, "bias_regularizer": null, "activity_regularizer": null, "kernel_constraint": null, "bias_constraint": null}, "name": "block_3_expand", "inbound_nodes": [[["block_2_add", 0, 0, {}]]]}, {"class_name": "BatchNormalization", "config": {"name": "block_3_expand_BN", "trainable": false, "dtype": "float32", "axis": [3], "momentum": 0.999, "epsilon": 0.001, "center": true, "scale": true, "beta_initializer": {"module": "keras.initializers", "class_name": "Zeros", "config": {}, "registered_name": null}, "gamma_initializer": {"module": "keras.initializers", "class_name": "Ones", "config": {}, "registered_name": null}, "moving_mean_initializer": {"module": "keras.initializers", "class_name": "Zeros", "config": {}, "registered_name": null}, "moving_variance_initializer": {"module": "keras.initializers", "class_name": "Ones", "config": {}, "registered_name": null}, "beta_regularizer": null, "gamma_regularizer": null, "beta_constraint": null, "gamma_constraint": null}, "name": "block_3_expand_BN", "inbound_nodes": [[["block_3_expand", 0, 0, {}]]]}, {"class_name": "ReLU", "config": {"name": "block_3_expand_relu", "trainable": false, "dtype": "float32", "max_value": 6.0, "negative_slope": 0.0, "threshold": 0.0}, "name": "block_3_expand_relu", "inbound_nodes": [[["block_3_expand_BN", 0, 0, {}]]]}, {"class_name": "ZeroPadding2D", "config": {"name": "block_3_pad", "trainable": false, "dtype": "float32", "padding": [[0, 1], [0, 1]], "data_format": "channels_last"}, "name": "block_3_pad", "inbound_nodes": [[["block_3_expand_relu", 0, 0, {}]]]}, {"class_name": "DepthwiseConv2D", "config": {"name": "block_3_depthwise", "trainable": false, "dtype": "float32", "kernel_size": [3, 3], "strides": [2, 2], "padding": "valid", "data_format": "channels_last", "dilation_rate": [1, 1], "groups": 1, "activation": "linear", "use_bias": false, "bias_initializer": {"module": "keras.initializers", "class_name": "Zeros", "config": {}, "registered_name": null}, "bias_regularizer": null, "activity_regularizer": null, "bias_constraint": null, "depth_multiplier": 1, "depthwise_initializer": {"module": "keras.initializers", "class_name": "GlorotUniform", "config": {"seed": null}, "registered_name": null}, "depthwise_regularizer": null, "depthwise_constraint": null}, "name": "block_3_depthwise", "inbound_nodes": [[["block_3_pad", 0, 0, {}]]]}, {"class_name": "BatchNormalization", "config": {"name": "block_3_depthwise_BN", "trainable": false, "dtype": "float32", "axis": [3], "momentum": 0.999, "epsilon": 0.001, "center": true, "scale": true, "beta_initializer": {"module": "keras.initializers", "class_name": "Zeros", "config": {}, "registered_name": null}, "gamma_initializer": {"module": "keras.initializers", "class_name": "Ones", "config": {}, "registered_name": null}, "moving_mean_initializer": {"module": "keras.initializers", "class_name": "Zeros", "config": {}, "registered_name": null}, "moving_variance_initializer": {"module": "keras.initializers", "class_name": "Ones", "config": {}, "registered_name": null}, "beta_regularizer": null, "gamma_regularizer": null, "beta_constraint": null, "gamma_constraint": null}, "name": "block_3_depthwise_BN", "inbound_nodes": [[["block_3_depthwise", 0, 0, {}]]]}, {"class_name": "ReLU", "config": {"name": "block_3_depthwise_relu", "trainable": false, "dtype": "float32", "max_value": 6.0, "negative_slope": 0.0, "threshold": 0.0}, "name": "block_3_depthwise_relu", "inbound_nodes": [[["block_3_depthwise_BN", 0, 0, {}]]]}, {"class_name": "Conv2D", "config": {"name": "block_3_project", "trainable": false, "dtype": "float32", "filters": 32, "kernel_size": [1, 1], "strides": [1, 1], "padding": "same", "data_format": "channels_last", "dilation_rate": [1, 1], "groups": 1, "activation": "linear", "use_bias": false, "kernel_initializer": {"module": "keras.initializers", "class_name": "GlorotUniform", "config": {"seed": null}, "registered_name": null}, "bias_initializer": {"module": "keras.initializers", "class_name": "Zeros", "config": {}, "registered_name": null}, "kernel_regularizer": null, "bias_regularizer": null, "activity_regularizer": null, "kernel_constraint": null, "bias_constraint": null}, "name": "block_3_project", "inbound_nodes": [[["block_3_depthwise_relu", 0, 0, {}]]]}, {"class_name": "BatchNormalization", "config": {"name": "block_3_project_BN", "trainable": false, "dtype": "float32", "axis": [3], "momentum": 0.999, "epsilon": 0.001, "center": true, "scale": true, "beta_initializer": {"module": "keras.initializers", "class_name": "Zeros", "config": {}, "registered_name": null}, "gamma_initializer": {"module": "keras.initializers", "class_name": "Ones", "config": {}, "registered_name": null}, "moving_mean_initializer": {"module": "keras.initializers", "class_name": "Zeros", "config": {}, "registered_name": null}, "moving_variance_initializer": {"module": "keras.initializers", "class_name": "Ones", "config": {}, "registered_name": null}, "beta_regularizer": null, "gamma_regularizer": null, "beta_constraint": null, "gamma_constraint": null}, "name": "block_3_project_BN", "inbound_nodes": [[["block_3_project", 0, 0, {}]]]}, {"class_name": "Conv2D", "config": {"name": "block_4_expand", "trainable": false, "dtype": "float32", "filters": 192, "kernel_size": [1, 1], "strides": [1, 1], "padding": "same", "data_format": "channels_last", "dilation_rate": [1, 1], "groups": 1, "activation": "linear", "use_bias": false, "kernel_initializer": {"module": "keras.initializers", "class_name": "GlorotUniform", "config": {"seed": null}, "registered_name": null}, "bias_initializer": {"module": "keras.initializers", "class_name": "Zeros", "config": {}, "registered_name": null}, "kernel_regularizer": null, "bias_regularizer": null, "activity_regularizer": null, "kernel_constraint": null, "bias_constraint": null}, "name": "block_4_expand", "inbound_nodes": [[["block_3_project_BN", 0, 0, {}]]]}, {"class_name": "BatchNormalization", "config": {"name": "block_4_expand_BN", "trainable": false, "dtype": "float32", "axis": [3], "momentum": 0.999, "epsilon": 0.001, "center": true, "scale": true, "beta_initializer": {"module": "keras.initializers", "class_name": "Zeros", "config": {}, "registered_name": null}, "gamma_initializer": {"module": "keras.initializers", "class_name": "Ones", "config": {}, "registered_name": null}, "moving_mean_initializer": {"module": "keras.initializers", "class_name": "Zeros", "config": {}, "registered_name": null}, "moving_variance_initializer": {"module": "keras.initializers", "class_name": "Ones", "config": {}, "registered_name": null}, "beta_regularizer": null, "gamma_regularizer": null, "beta_constraint": null, "gamma_constraint": null}, "name": "block_4_expand_BN", "inbound_nodes": [[["block_4_expand", 0, 0, {}]]]}, {"class_name": "ReLU", "config": {"name": "block_4_expand_relu", "trainable": false, "dtype": "float32", "max_value": 6.0, "negative_slope": 0.0, "threshold": 0.0}, "name": "block_4_expand_relu", "inbound_nodes": [[["block_4_expand_BN", 0, 0, {}]]]}, {"class_name": "DepthwiseConv2D", "config": {"name": "block_4_depthwise", "trainable": false, "dtype": "float32", "kernel_size": [3, 3], "strides": [1, 1], "padding": "same", "data_format": "channels_last", "dilation_rate": [1, 1], "groups": 1, "activation": "linear", "use_bias": false, "bias_initializer": {"module": "keras.initializers", "class_name": "Zeros", "config": {}, "registered_name": null}, "bias_regularizer": null, "activity_regularizer": null, "bias_constraint": null, "depth_multiplier": 1, "depthwise_initializer": {"module": "keras.initializers", "class_name": "GlorotUniform", "config": {"seed": null}, "registered_name": null}, "depthwise_regularizer": null, "depthwise_constraint": null}, "name": "block_4_depthwise", "inbound_nodes": [[["block_4_expand_relu", 0, 0, {}]]]}, {"class_name": "BatchNormalization", "config": {"name": "block_4_depthwise_BN", "trainable": false, "dtype": "float32", "axis": [3], "momentum": 0.999, "epsilon": 0.001, "center": true, "scale": true, "beta_initializer": {"module": "keras.initializers", "class_name": "Zeros", "config": {}, "registered_name": null}, "gamma_initializer": {"module": "keras.initializers", "class_name": "Ones", "config": {}, "registered_name": null}, "moving_mean_initializer": {"module": "keras.initializers", "class_name": "Zeros", "config": {}, "registered_name": null}, "moving_variance_initializer": {"module": "keras.initializers", "class_name": "Ones", "config": {}, "registered_name": null}, "beta_regularizer": null, "gamma_regularizer": null, "beta_constraint": null, "gamma_constraint": null}, "name": "block_4_depthwise_BN", "inbound_nodes": [[["block_4_depthwise", 0, 0, {}]]]}, {"class_name": "ReLU", "config": {"name": "block_4_depthwise_relu", "trainable": false, "dtype": "float32", "max_value": 6.0, "negative_slope": 0.0, "threshold": 0.0}, "name": "block_4_depthwise_relu", "inbound_nodes": [[["block_4_depthwise_BN", 0, 0, {}]]]}, {"class_name": "Conv2D", "config": {"name": "block_4_project", "trainable": false, "dtype": "float32", "filters": 32, "kernel_size": [1, 1], "strides": [1, 1], "padding": "same", "data_format": "channels_last", "dilation_rate": [1, 1], "groups": 1, "activation": "linear", "use_bias": false, "kernel_initializer": {"module": "keras.initializers", "class_name": "GlorotUniform", "config": {"seed": null}, "registered_name": null}, "bias_initializer": {"module": "keras.initializers", "class_name": "Zeros", "config": {}, "registered_name": null}, "kernel_regularizer": null, "bias_regularizer": null, "activity_regularizer": null, "kernel_constraint": null, "bias_constraint": null}, "name": "block_4_project", "inbound_nodes": [[["block_4_depthwise_relu", 0, 0, {}]]]}, {"class_name": "BatchNormalization", "config": {"name": "block_4_project_BN", "trainable": false, "dtype": "float32", "axis": [3], "momentum": 0.999, "epsilon": 0.001, "center": true, "scale": true, "beta_initializer": {"module": "keras.initializers", "class_name": "Zeros", "config": {}, "registered_name": null}, "gamma_initializer": {"module": "keras.initializers", "class_name": "Ones", "config": {}, "registered_name": null}, "moving_mean_initializer": {"module": "keras.initializers", "class_name": "Zeros", "config": {}, "registered_name": null}, "moving_variance_initializer": {"module": "keras.initializers", "class_name": "Ones", "config": {}, "registered_name": null}, "beta_regularizer": null, "gamma_regularizer": null, "beta_constraint": null, "gamma_constraint": null}, "name": "block_4_project_BN", "inbound_nodes": [[["block_4_project", 0, 0, {}]]]}, {"class_name": "Add", "config": {"name": "block_4_add", "trainable": false, "dtype": "float32"}, "name": "block_4_add", "inbound_nodes": [[["block_3_project_BN", 0, 0, {}], ["block_4_project_BN", 0, 0, {}]]]}, {"class_name": "Conv2D", "config": {"name": "block_5_expand", "trainable": false, "dtype": "float32", "filters": 192, "kernel_size": [1, 1], "strides": [1, 1], "padding": "same", "data_format": "channels_last", "dilation_rate": [1, 1], "groups": 1, "activation": "linear", "use_bias": false, "kernel_initializer": {"module": "keras.initializers", "class_name": "GlorotUniform", "config": {"seed": null}, "registered_name": null}, "bias_initializer": {"module": "keras.initializers", "class_name": "Zeros", "config": {}, "registered_name": null}, "kernel_regularizer": null, "bias_regularizer": null, "activity_regularizer": null, "kernel_constraint": null, "bias_constraint": null}, "name": "block_5_expand", "inbound_nodes": [[["block_4_add", 0, 0, {}]]]}, {"class_name": "BatchNormalization", "config": {"name": "block_5_expand_BN", "trainable": false, "dtype": "float32", "axis": [3], "momentum": 0.999, "epsilon": 0.001, "center": true, "scale": true, "beta_initializer": {"module": "keras.initializers", "class_name": "Zeros", "config": {}, "registered_name": null}, "gamma_initializer": {"module": "keras.initializers", "class_name": "Ones", "config": {}, "registered_name": null}, "moving_mean_initializer": {"module": "keras.initializers", "class_name": "Zeros", "config": {}, "registered_name": null}, "moving_variance_initializer": {"module": "keras.initializers", "class_name": "Ones", "config": {}, "registered_name": null}, "beta_regularizer": null, "gamma_regularizer": null, "beta_constraint": null, "gamma_constraint": null}, "name": "block_5_expand_BN", "inbound_nodes": [[["block_5_expand", 0, 0, {}]]]}, {"class_name": "ReLU", "config": {"name": "block_5_expand_relu", "trainable": false, "dtype": "float32", "max_value": 6.0, "negative_slope": 0.0, "threshold": 0.0}, "name": "block_5_expand_relu", "inbound_nodes": [[["block_5_expand_BN", 0, 0, {}]]]}, {"class_name": "DepthwiseConv2D", "config": {"name": "block_5_depthwise", "trainable": false, "dtype": "float32", "kernel_size": [3, 3], "strides": [1, 1], "padding": "same", "data_format": "channels_last", "dilation_rate": [1, 1], "groups": 1, "activation": "linear", "use_bias": false, "bias_initializer": {"module": "keras.initializers", "class_name": "Zeros", "config": {}, "registered_name": null}, "bias_regularizer": null, "activity_regularizer": null, "bias_constraint": null, "depth_multiplier": 1, "depthwise_initializer": {"module": "keras.initializers", "class_name": "GlorotUniform", "config": {"seed": null}, "registered_name": null}, "depthwise_regularizer": null, "depthwise_constraint": null}, "name": "block_5_depthwise", "inbound_nodes": [[["block_5_expand_relu", 0, 0, {}]]]}, {"class_name": "BatchNormalization", "config": {"name": "block_5_depthwise_BN", "trainable": false, "dtype": "float32", "axis": [3], "momentum": 0.999, "epsilon": 0.001, "center": true, "scale": true, "beta_initializer": {"module": "keras.initializers", "class_name": "Zeros", "config": {}, "registered_name": null}, "gamma_initializer": {"module": "keras.initializers", "class_name": "Ones", "config": {}, "registered_name": null}, "moving_mean_initializer": {"module": "keras.initializers", "class_name": "Zeros", "config": {}, "registered_name": null}, "moving_variance_initializer": {"module": "keras.initializers", "class_name": "Ones", "config": {}, "registered_name": null}, "beta_regularizer": null, "gamma_regularizer": null, "beta_constraint": null, "gamma_constraint": null}, "name": "block_5_depthwise_BN", "inbound_nodes": [[["block_5_depthwise", 0, 0, {}]]]}, {"class_name": "ReLU", "config": {"name": "block_5_depthwise_relu", "trainable": false, "dtype": "float32", "max_value": 6.0, "negative_slope": 0.0, "threshold": 0.0}, "name": "block_5_depthwise_relu", "inbound_nodes": [[["block_5_depthwise_BN", 0, 0, {}]]]}, {"class_name": "Conv2D", "config": {"name": "block_5_project", "trainable": false, "dtype": "float32", "filters": 32, "kernel_size": [1, 1], "strides": [1, 1], "padding": "same", "data_format": "channels_last", "dilation_rate": [1, 1], "groups": 1, "activation": "linear", "use_bias": false, "kernel_initializer": {"module": "keras.initializers", "class_name": "GlorotUniform", "config": {"seed": null}, "registered_name": null}, "bias_initializer": {"module": "keras.initializers", "class_name": "Zeros", "config": {}, "registered_name": null}, "kernel_regularizer": null, "bias_regularizer": null, "activity_regularizer": null, "kernel_constraint": null, "bias_constraint": null}, "name": "block_5_project", "inbound_nodes": [[["block_5_depthwise_relu", 0, 0, {}]]]}, {"class_name": "BatchNormalization", "config": {"name": "block_5_project_BN", "trainable": false, "dtype": "float32", "axis": [3], "momentum": 0.999, "epsilon": 0.001, "center": true, "scale": true, "beta_initializer": {"module": "keras.initializers", "class_name": "Zeros", "config": {}, "registered_name": null}, "gamma_initializer": {"module": "keras.initializers", "class_name": "Ones", "config": {}, "registered_name": null}, "moving_mean_initializer": {"module": "keras.initializers", "class_name": "Zeros", "config": {}, "registered_name": null}, "moving_variance_initializer": {"module": "keras.initializers", "class_name": "Ones", "config": {}, "registered_name": null}, "beta_regularizer": null, "gamma_regularizer": null, "beta_constraint": null, "gamma_constraint": null}, "name": "block_5_project_BN", "inbound_nodes": [[["block_5_project", 0, 0, {}]]]}, {"class_name": "Add", "config": {"name": "block_5_add", "trainable": false, "dtype": "float32"}, "name": "block_5_add", "inbound_nodes": [[["block_4_add", 0, 0, {}], ["block_5_project_BN", 0, 0, {}]]]}, {"class_name": "Conv2D", "config": {"name": "block_6_expand", "trainable": false, "dtype": "float32", "filters": 192, "kernel_size": [1, 1], "strides": [1, 1], "padding": "same", "data_format": "channels_last", "dilation_rate": [1, 1], "groups": 1, "activation": "linear", "use_bias": false, "kernel_initializer": {"module": "keras.initializers", "class_name": "GlorotUniform", "config": {"seed": null}, "registered_name": null}, "bias_initializer": {"module": "keras.initializers", "class_name": "Zeros", "config": {}, "registered_name": null}, "kernel_regularizer": null, "bias_regularizer": null, "activity_regularizer": null, "kernel_constraint": null, "bias_constraint": null}, "name": "block_6_expand", "inbound_nodes": [[["block_5_add", 0, 0, {}]]]}, {"class_name": "BatchNormalization", "config": {"name": "block_6_expand_BN", "trainable": false, "dtype": "float32", "axis": [3], "momentum": 0.999, "epsilon": 0.001, "center": true, "scale": true, "beta_initializer": {"module": "keras.initializers", "class_name": "Zeros", "config": {}, "registered_name": null}, "gamma_initializer": {"module": "keras.initializers", "class_name": "Ones", "config": {}, "registered_name": null}, "moving_mean_initializer": {"module": "keras.initializers", "class_name": "Zeros", "config": {}, "registered_name": null}, "moving_variance_initializer": {"module": "keras.initializers", "class_name": "Ones", "config": {}, "registered_name": null}, "beta_regularizer": null, "gamma_regularizer": null, "beta_constraint": null, "gamma_constraint": null}, "name": "block_6_expand_BN", "inbound_nodes": [[["block_6_expand", 0, 0, {}]]]}, {"class_name": "ReLU", "config": {"name": "block_6_expand_relu", "trainable": false, "dtype": "float32", "max_value": 6.0, "negative_slope": 0.0, "threshold": 0.0}, "name": "block_6_expand_relu", "inbound_nodes": [[["block_6_expand_BN", 0, 0, {}]]]}, {"class_name": "ZeroPadding2D", "config": {"name": "block_6_pad", "trainable": false, "dtype": "float32", "padding": [[0, 1], [0, 1]], "data_format": "channels_last"}, "name": "block_6_pad", "inbound_nodes": [[["block_6_expand_relu", 0, 0, {}]]]}, {"class_name": "DepthwiseConv2D", "config": {"name": "block_6_depthwise", "trainable": false, "dtype": "float32", "kernel_size": [3, 3], "strides": [2, 2], "padding": "valid", "data_format": "channels_last", "dilation_rate": [1, 1], "groups": 1, "activation": "linear", "use_bias": false, "bias_initializer": {"module": "keras.initializers", "class_name": "Zeros", "config": {}, "registered_name": null}, "bias_regularizer": null, "activity_regularizer": null, "bias_constraint": null, "depth_multiplier": 1, "depthwise_initializer": {"module": "keras.initializers", "class_name": "GlorotUniform", "config": {"seed": null}, "registered_name": null}, "depthwise_regularizer": null, "depthwise_constraint": null}, "name": "block_6_depthwise", "inbound_nodes": [[["block_6_pad", 0, 0, {}]]]}, {"class_name": "BatchNormalization", "config": {"name": "block_6_depthwise_BN", "trainable": false, "dtype": "float32", "axis": [3], "momentum": 0.999, "epsilon": 0.001, "center": true, "scale": true, "beta_initializer": {"module": "keras.initializers", "class_name": "Zeros", "config": {}, "registered_name": null}, "gamma_initializer": {"module": "keras.initializers", "class_name": "Ones", "config": {}, "registered_name": null}, "moving_mean_initializer": {"module": "keras.initializers", "class_name": "Zeros", "config": {}, "registered_name": null}, "moving_variance_initializer": {"module": "keras.initializers", "class_name": "Ones", "config": {}, "registered_name": null}, "beta_regularizer": null, "gamma_regularizer": null, "beta_constraint": null, "gamma_constraint": null}, "name": "block_6_depthwise_BN", "inbound_nodes": [[["block_6_depthwise", 0, 0, {}]]]}, {"class_name": "ReLU", "config": {"name": "block_6_depthwise_relu", "trainable": false, "dtype": "float32", "max_value": 6.0, "negative_slope": 0.0, "threshold": 0.0}, "name": "block_6_depthwise_relu", "inbound_nodes": [[["block_6_depthwise_BN", 0, 0, {}]]]}, {"class_name": "Conv2D", "config": {"name": "block_6_project", "trainable": false, "dtype": "float32", "filters": 64, "kernel_size": [1, 1], "strides": [1, 1], "padding": "same", "data_format": "channels_last", "dilation_rate": [1, 1], "groups": 1, "activation": "linear", "use_bias": false, "kernel_initializer": {"module": "keras.initializers", "class_name": "GlorotUniform", "config": {"seed": null}, "registered_name": null}, "bias_initializer": {"module": "keras.initializers", "class_name": "Zeros", "config": {}, "registered_name": null}, "kernel_regularizer": null, "bias_regularizer": null, "activity_regularizer": null, "kernel_constraint": null, "bias_constraint": null}, "name": "block_6_project", "inbound_nodes": [[["block_6_depthwise_relu", 0, 0, {}]]]}, {"class_name": "BatchNormalization", "config": {"name": "block_6_project_BN", "trainable": false, "dtype": "float32", "axis": [3], "momentum": 0.999, "epsilon": 0.001, "center": true, "scale": true, "beta_initializer": {"module": "keras.initializers", "class_name": "Zeros", "config": {}, "registered_name": null}, "gamma_initializer": {"module": "keras.initializers", "class_name": "Ones", "config": {}, "registered_name": null}, "moving_mean_initializer": {"module": "keras.initializers", "class_name": "Zeros", "config": {}, "registered_name": null}, "moving_variance_initializer": {"module": "keras.initializers", "class_name": "Ones", "config": {}, "registered_name": null}, "beta_regularizer": null, "gamma_regularizer": null, "beta_constraint": null, "gamma_constraint": null}, "name": "block_6_project_BN", "inbound_nodes": [[["block_6_project", 0, 0, {}]]]}, {"class_name": "Conv2D", "config": {"name": "block_7_expand", "trainable": false, "dtype": "float32", "filters": 384, "kernel_size": [1, 1], "strides": [1, 1], "padding": "same", "data_format": "channels_last", "dilation_rate": [1, 1], "groups": 1, "activation": "linear", "use_bias": false, "kernel_initializer": {"module": "keras.initializers", "class_name": "GlorotUniform", "config": {"seed": null}, "registered_name": null}, "bias_initializer": {"module": "keras.initializers", "class_name": "Zeros", "config": {}, "registered_name": null}, "kernel_regularizer": null, "bias_regularizer": null, "activity_regularizer": null, "kernel_constraint": null, "bias_constraint": null}, "name": "block_7_expand", "inbound_nodes": [[["block_6_project_BN", 0, 0, {}]]]}, {"class_name": "BatchNormalization", "config": {"name": "block_7_expand_BN", "trainable": false, "dtype": "float32", "axis": [3], "momentum": 0.999, "epsilon": 0.001, "center": true, "scale": true, "beta_initializer": {"module": "keras.initializers", "class_name": "Zeros", "config": {}, "registered_name": null}, "gamma_initializer": {"module": "keras.initializers", "class_name": "Ones", "config": {}, "registered_name": null}, "moving_mean_initializer": {"module": "keras.initializers", "class_name": "Zeros", "config": {}, "registered_name": null}, "moving_variance_initializer": {"module": "keras.initializers", "class_name": "Ones", "config": {}, "registered_name": null}, "beta_regularizer": null, "gamma_regularizer": null, "beta_constraint": null, "gamma_constraint": null}, "name": "block_7_expand_BN", "inbound_nodes": [[["block_7_expand", 0, 0, {}]]]}, {"class_name": "ReLU", "config": {"name": "block_7_expand_relu", "trainable": false, "dtype": "float32", "max_value": 6.0, "negative_slope": 0.0, "threshold": 0.0}, "name": "block_7_expand_relu", "inbound_nodes": [[["block_7_expand_BN", 0, 0, {}]]]}, {"class_name": "DepthwiseConv2D", "config": {"name": "block_7_depthwise", "trainable": false, "dtype": "float32", "kernel_size": [3, 3], "strides": [1, 1], "padding": "same", "data_format": "channels_last", "dilation_rate": [1, 1], "groups": 1, "activation": "linear", "use_bias": false, "bias_initializer": {"module": "keras.initializers", "class_name": "Zeros", "config": {}, "registered_name": null}, "bias_regularizer": null, "activity_regularizer": null, "bias_constraint": null, "depth_multiplier": 1, "depthwise_initializer": {"module": "keras.initializers", "class_name": "GlorotUniform", "config": {"seed": null}, "registered_name": null}, "depthwise_regularizer": null, "depthwise_constraint": null}, "name": "block_7_depthwise", "inbound_nodes": [[["block_7_expand_relu", 0, 0, {}]]]}, {"class_name": "BatchNormalization", "config": {"name": "block_7_depthwise_BN", "trainable": false, "dtype": "float32", "axis": [3], "momentum": 0.999, "epsilon": 0.001, "center": true, "scale": true, "beta_initializer": {"module": "keras.initializers", "class_name": "Zeros", "config": {}, "registered_name": null}, "gamma_initializer": {"module": "keras.initializers", "class_name": "Ones", "config": {}, "registered_name": null}, "moving_mean_initializer": {"module": "keras.initializers", "class_name": "Zeros", "config": {}, "registered_name": null}, "moving_variance_initializer": {"module": "keras.initializers", "class_name": "Ones", "config": {}, "registered_name": null}, "beta_regularizer": null, "gamma_regularizer": null, "beta_constraint": null, "gamma_constraint": null}, "name": "block_7_depthwise_BN", "inbound_nodes": [[["block_7_depthwise", 0, 0, {}]]]}, {"class_name": "ReLU", "config": {"name": "block_7_depthwise_relu", "trainable": false, "dtype": "float32", "max_value": 6.0, "negative_slope": 0.0, "threshold": 0.0}, "name": "block_7_depthwise_relu", "inbound_nodes": [[["block_7_depthwise_BN", 0, 0, {}]]]}, {"class_name": "Conv2D", "config": {"name": "block_7_project", "trainable": false, "dtype": "float32", "filters": 64, "kernel_size": [1, 1], "strides": [1, 1], "padding": "same", "data_format": "channels_last", "dilation_rate": [1, 1], "groups": 1, "activation": "linear", "use_bias": false, "kernel_initializer": {"module": "keras.initializers", "class_name": "GlorotUniform", "config": {"seed": null}, "registered_name": null}, "bias_initializer": {"module": "keras.initializers", "class_name": "Zeros", "config": {}, "registered_name": null}, "kernel_regularizer": null, "bias_regularizer": null, "activity_regularizer": null, "kernel_constraint": null, "bias_constraint": null}, "name": "block_7_project", "inbound_nodes": [[["block_7_depthwise_relu", 0, 0, {}]]]}, {"class_name": "BatchNormalization", "config": {"name": "block_7_project_BN", "trainable": false, "dtype": "float32", "axis": [3], "momentum": 0.999, "epsilon": 0.001, "center": true, "scale": true, "beta_initializer": {"module": "keras.initializers", "class_name": "Zeros", "config": {}, "registered_name": null}, "gamma_initializer": {"module": "keras.initializers", "class_name": "Ones", "config": {}, "registered_name": null}, "moving_mean_initializer": {"module": "keras.initializers", "class_name": "Zeros", "config": {}, "registered_name": null}, "moving_variance_initializer": {"module": "keras.initializers", "class_name": "Ones", "config": {}, "registered_name": null}, "beta_regularizer": null, "gamma_regularizer": null, "beta_constraint": null, "gamma_constraint": null}, "name": "block_7_project_BN", "inbound_nodes": [[["block_7_project", 0, 0, {}]]]}, {"class_name": "Add", "config": {"name": "block_7_add", "trainable": false, "dtype": "float32"}, "name": "block_7_add", "inbound_nodes": [[["block_6_project_BN", 0, 0, {}], ["block_7_project_BN", 0, 0, {}]]]}, {"class_name": "Conv2D", "config": {"name": "block_8_expand", "trainable": false, "dtype": "float32", "filters": 384, "kernel_size": [1, 1], "strides": [1, 1], "padding": "same", "data_format": "channels_last", "dilation_rate": [1, 1], "groups": 1, "activation": "linear", "use_bias": false, "kernel_initializer": {"module": "keras.initializers", "class_name": "GlorotUniform", "config": {"seed": null}, "registered_name": null}, "bias_initializer": {"module": "keras.initializers", "class_name": "Zeros", "config": {}, "registered_name": null}, "kernel_regularizer": null, "bias_regularizer": null, "activity_regularizer": null, "kernel_constraint": null, "bias_constraint": null}, "name": "block_8_expand", "inbound_nodes": [[["block_7_add", 0, 0, {}]]]}, {"class_name": "BatchNormalization", "config": {"name": "block_8_expand_BN", "trainable": false, "dtype": "float32", "axis": [3], "momentum": 0.999, "epsilon": 0.001, "center": true, "scale": true, "beta_initializer": {"module": "keras.initializers", "class_name": "Zeros", "config": {}, "registered_name": null}, "gamma_initializer": {"module": "keras.initializers", "class_name": "Ones", "config": {}, "registered_name": null}, "moving_mean_initializer": {"module": "keras.initializers", "class_name": "Zeros", "config": {}, "registered_name": null}, "moving_variance_initializer": {"module": "keras.initializers", "class_name": "Ones", "config": {}, "registered_name": null}, "beta_regularizer": null, "gamma_regularizer": null, "beta_constraint": null, "gamma_constraint": null}, "name": "block_8_expand_BN", "inbound_nodes": [[["block_8_expand", 0, 0, {}]]]}, {"class_name": "ReLU", "config": {"name": "block_8_expand_relu", "trainable": false, "dtype": "float32", "max_value": 6.0, "negative_slope": 0.0, "threshold": 0.0}, "name": "block_8_expand_relu", "inbound_nodes": [[["block_8_expand_BN", 0, 0, {}]]]}, {"class_name": "DepthwiseConv2D", "config": {"name": "block_8_depthwise", "trainable": false, "dtype": "float32", "kernel_size": [3, 3], "strides": [1, 1], "padding": "same", "data_format": "channels_last", "dilation_rate": [1, 1], "groups": 1, "activation": "linear", "use_bias": false, "bias_initializer": {"module": "keras.initializers", "class_name": "Zeros", "config": {}, "registered_name": null}, "bias_regularizer": null, "activity_regularizer": null, "bias_constraint": null, "depth_multiplier": 1, "depthwise_initializer": {"module": "keras.initializers", "class_name": "GlorotUniform", "config": {"seed": null}, "registered_name": null}, "depthwise_regularizer": null, "depthwise_constraint": null}, "name": "block_8_depthwise", "inbound_nodes": [[["block_8_expand_relu", 0, 0, {}]]]}, {"class_name": "BatchNormalization", "config": {"name": "block_8_depthwise_BN", "trainable": false, "dtype": "float32", "axis": [3], "momentum": 0.999, "epsilon": 0.001, "center": true, "scale": true, "beta_initializer": {"module": "keras.initializers", "class_name": "Zeros", "config": {}, "registered_name": null}, "gamma_initializer": {"module": "keras.initializers", "class_name": "Ones", "config": {}, "registered_name": null}, "moving_mean_initializer": {"module": "keras.initializers", "class_name": "Zeros", "config": {}, "registered_name": null}, "moving_variance_initializer": {"module": "keras.initializers", "class_name": "Ones", "config": {}, "registered_name": null}, "beta_regularizer": null, "gamma_regularizer": null, "beta_constraint": null, "gamma_constraint": null}, "name": "block_8_depthwise_BN", "inbound_nodes": [[["block_8_depthwise", 0, 0, {}]]]}, {"class_name": "ReLU", "config": {"name": "block_8_depthwise_relu", "trainable": false, "dtype": "float32", "max_value": 6.0, "negative_slope": 0.0, "threshold": 0.0}, "name": "block_8_depthwise_relu", "inbound_nodes": [[["block_8_depthwise_BN", 0, 0, {}]]]}, {"class_name": "Conv2D", "config": {"name": "block_8_project", "trainable": false, "dtype": "float32", "filters": 64, "kernel_size": [1, 1], "strides": [1, 1], "padding": "same", "data_format": "channels_last", "dilation_rate": [1, 1], "groups": 1, "activation": "linear", "use_bias": false, "kernel_initializer": {"module": "keras.initializers", "class_name": "GlorotUniform", "config": {"seed": null}, "registered_name": null}, "bias_initializer": {"module": "keras.initializers", "class_name": "Zeros", "config": {}, "registered_name": null}, "kernel_regularizer": null, "bias_regularizer": null, "activity_regularizer": null, "kernel_constraint": null, "bias_constraint": null}, "name": "block_8_project", "inbound_nodes": [[["block_8_depthwise_relu", 0, 0, {}]]]}, {"class_name": "BatchNormalization", "config": {"name": "block_8_project_BN", "trainable": false, "dtype": "float32", "axis": [3], "momentum": 0.999, "epsilon": 0.001, "center": true, "scale": true, "beta_initializer": {"module": "keras.initializers", "class_name": "Zeros", "config": {}, "registered_name": null}, "gamma_initializer": {"module": "keras.initializers", "class_name": "Ones", "config": {}, "registered_name": null}, "moving_mean_initializer": {"module": "keras.initializers", "class_name": "Zeros", "config": {}, "registered_name": null}, "moving_variance_initializer": {"module": "keras.initializers", "class_name": "Ones", "config": {}, "registered_name": null}, "beta_regularizer": null, "gamma_regularizer": null, "beta_constraint": null, "gamma_constraint": null}, "name": "block_8_project_BN", "inbound_nodes": [[["block_8_project", 0, 0, {}]]]}, {"class_name": "Add", "config": {"name": "block_8_add", "trainable": false, "dtype": "float32"}, "name": "block_8_add", "inbound_nodes": [[["block_7_add", 0, 0, {}], ["block_8_project_BN", 0, 0, {}]]]}, {"class_name": "Conv2D", "config": {"name": "block_9_expand", "trainable": false, "dtype": "float32", "filters": 384, "kernel_size": [1, 1], "strides": [1, 1], "padding": "same", "data_format": "channels_last", "dilation_rate": [1, 1], "groups": 1, "activation": "linear", "use_bias": false, "kernel_initializer": {"module": "keras.initializers", "class_name": "GlorotUniform", "config": {"seed": null}, "registered_name": null}, "bias_initializer": {"module": "keras.initializers", "class_name": "Zeros", "config": {}, "registered_name": null}, "kernel_regularizer": null, "bias_regularizer": null, "activity_regularizer": null, "kernel_constraint": null, "bias_constraint": null}, "name": "block_9_expand", "inbound_nodes": [[["block_8_add", 0, 0, {}]]]}, {"class_name": "BatchNormalization", "config": {"name": "block_9_expand_BN", "trainable": false, "dtype": "float32", "axis": [3], "momentum": 0.999, "epsilon": 0.001, "center": true, "scale": true, "beta_initializer": {"module": "keras.initializers", "class_name": "Zeros", "config": {}, "registered_name": null}, "gamma_initializer": {"module": "keras.initializers", "class_name": "Ones", "config": {}, "registered_name": null}, "moving_mean_initializer": {"module": "keras.initializers", "class_name": "Zeros", "config": {}, "registered_name": null}, "moving_variance_initializer": {"module": "keras.initializers", "class_name": "Ones", "config": {}, "registered_name": null}, "beta_regularizer": null, "gamma_regularizer": null, "beta_constraint": null, "gamma_constraint": null}, "name": "block_9_expand_BN", "inbound_nodes": [[["block_9_expand", 0, 0, {}]]]}, {"class_name": "ReLU", "config": {"name": "block_9_expand_relu", "trainable": false, "dtype": "float32", "max_value": 6.0, "negative_slope": 0.0, "threshold": 0.0}, "name": "block_9_expand_relu", "inbound_nodes": [[["block_9_expand_BN", 0, 0, {}]]]}, {"class_name": "DepthwiseConv2D", "config": {"name": "block_9_depthwise", "trainable": false, "dtype": "float32", "kernel_size": [3, 3], "strides": [1, 1], "padding": "same", "data_format": "channels_last", "dilation_rate": [1, 1], "groups": 1, "activation": "linear", "use_bias": false, "bias_initializer": {"module": "keras.initializers", "class_name": "Zeros", "config": {}, "registered_name": null}, "bias_regularizer": null, "activity_regularizer": null, "bias_constraint": null, "depth_multiplier": 1, "depthwise_initializer": {"module": "keras.initializers", "class_name": "GlorotUniform", "config": {"seed": null}, "registered_name": null}, "depthwise_regularizer": null, "depthwise_constraint": null}, "name": "block_9_depthwise", "inbound_nodes": [[["block_9_expand_relu", 0, 0, {}]]]}, {"class_name": "BatchNormalization", "config": {"name": "block_9_depthwise_BN", "trainable": false, "dtype": "float32", "axis": [3], "momentum": 0.999, "epsilon": 0.001, "center": true, "scale": true, "beta_initializer": {"module": "keras.initializers", "class_name": "Zeros", "config": {}, "registered_name": null}, "gamma_initializer": {"module": "keras.initializers", "class_name": "Ones", "config": {}, "registered_name": null}, "moving_mean_initializer": {"module": "keras.initializers", "class_name": "Zeros", "config": {}, "registered_name": null}, "moving_variance_initializer": {"module": "keras.initializers", "class_name": "Ones", "config": {}, "registered_name": null}, "beta_regularizer": null, "gamma_regularizer": null, "beta_constraint": null, "gamma_constraint": null}, "name": "block_9_depthwise_BN", "inbound_nodes": [[["block_9_depthwise", 0, 0, {}]]]}, {"class_name": "ReLU", "config": {"name": "block_9_depthwise_relu", "trainable": false, "dtype": "float32", "max_value": 6.0, "negative_slope": 0.0, "threshold": 0.0}, "name": "block_9_depthwise_relu", "inbound_nodes": [[["block_9_depthwise_BN", 0, 0, {}]]]}, {"class_name": "Conv2D", "config": {"name": "block_9_project", "trainable": false, "dtype": "float32", "filters": 64, "kernel_size": [1, 1], "strides": [1, 1], "padding": "same", "data_format": "channels_last", "dilation_rate": [1, 1], "groups": 1, "activation": "linear", "use_bias": false, "kernel_initializer": {"module": "keras.initializers", "class_name": "GlorotUniform", "config": {"seed": null}, "registered_name": null}, "bias_initializer": {"module": "keras.initializers", "class_name": "Zeros", "config": {}, "registered_name": null}, "kernel_regularizer": null, "bias_regularizer": null, "activity_regularizer": null, "kernel_constraint": null, "bias_constraint": null}, "name": "block_9_project", "inbound_nodes": [[["block_9_depthwise_relu", 0, 0, {}]]]}, {"class_name": "BatchNormalization", "config": {"name": "block_9_project_BN", "trainable": false, "dtype": "float32", "axis": [3], "momentum": 0.999, "epsilon": 0.001, "center": true, "scale": true, "beta_initializer": {"module": "keras.initializers", "class_name": "Zeros", "config": {}, "registered_name": null}, "gamma_initializer": {"module": "keras.initializers", "class_name": "Ones", "config": {}, "registered_name": null}, "moving_mean_initializer": {"module": "keras.initializers", "class_name": "Zeros", "config": {}, "registered_name": null}, "moving_variance_initializer": {"module": "keras.initializers", "class_name": "Ones", "config": {}, "registered_name": null}, "beta_regularizer": null, "gamma_regularizer": null, "beta_constraint": null, "gamma_constraint": null}, "name": "block_9_project_BN", "inbound_nodes": [[["block_9_project", 0, 0, {}]]]}, {"class_name": "Add", "config": {"name": "block_9_add", "trainable": false, "dtype": "float32"}, "name": "block_9_add", "inbound_nodes": [[["block_8_add", 0, 0, {}], ["block_9_project_BN", 0, 0, {}]]]}, {"class_name": "Conv2D", "config": {"name": "block_10_expand", "trainable": false, "dtype": "float32", "filters": 384, "kernel_size": [1, 1], "strides": [1, 1], "padding": "same", "data_format": "channels_last", "dilation_rate": [1, 1], "groups": 1, "activation": "linear", "use_bias": false, "kernel_initializer": {"module": "keras.initializers", "class_name": "GlorotUniform", "config": {"seed": null}, "registered_name": null}, "bias_initializer": {"module": "keras.initializers", "class_name": "Zeros", "config": {}, "registered_name": null}, "kernel_regularizer": null, "bias_regularizer": null, "activity_regularizer": null, "kernel_constraint": null, "bias_constraint": null}, "name": "block_10_expand", "inbound_nodes": [[["block_9_add", 0, 0, {}]]]}, {"class_name": "BatchNormalization", "config": {"name": "block_10_expand_BN", "trainable": false, "dtype": "float32", "axis": [3], "momentum": 0.999, "epsilon": 0.001, "center": true, "scale": true, "beta_initializer": {"module": "keras.initializers", "class_name": "Zeros", "config": {}, "registered_name": null}, "gamma_initializer": {"module": "keras.initializers", "class_name": "Ones", "config": {}, "registered_name": null}, "moving_mean_initializer": {"module": "keras.initializers", "class_name": "Zeros", "config": {}, "registered_name": null}, "moving_variance_initializer": {"module": "keras.initializers", "class_name": "Ones", "config": {}, "registered_name": null}, "beta_regularizer": null, "gamma_regularizer": null, "beta_constraint": null, "gamma_constraint": null}, "name": "block_10_expand_BN", "inbound_nodes": [[["block_10_expand", 0, 0, {}]]]}, {"class_name": "ReLU", "config": {"name": "block_10_expand_relu", "trainable": false, "dtype": "float32", "max_value": 6.0, "negative_slope": 0.0, "threshold": 0.0}, "name": "block_10_expand_relu", "inbound_nodes": [[["block_10_expand_BN", 0, 0, {}]]]}, {"class_name": "DepthwiseConv2D", "config": {"name": "block_10_depthwise", "trainable": false, "dtype": "float32", "kernel_size": [3, 3], "strides": [1, 1], "padding": "same", "data_format": "channels_last", "dilation_rate": [1, 1], "groups": 1, "activation": "linear", "use_bias": false, "bias_initializer": {"module": "keras.initializers", "class_name": "Zeros", "config": {}, "registered_name": null}, "bias_regularizer": null, "activity_regularizer": null, "bias_constraint": null, "depth_multiplier": 1, "depthwise_initializer": {"module": "keras.initializers", "class_name": "GlorotUniform", "config": {"seed": null}, "registered_name": null}, "depthwise_regularizer": null, "depthwise_constraint": null}, "name": "block_10_depthwise", "inbound_nodes": [[["block_10_expand_relu", 0, 0, {}]]]}, {"class_name": "BatchNormalization", "config": {"name": "block_10_depthwise_BN", "trainable": false, "dtype": "float32", "axis": [3], "momentum": 0.999, "epsilon": 0.001, "center": true, "scale": true, "beta_initializer": {"module": "keras.initializers", "class_name": "Zeros", "config": {}, "registered_name": null}, "gamma_initializer": {"module": "keras.initializers", "class_name": "Ones", "config": {}, "registered_name": null}, "moving_mean_initializer": {"module": "keras.initializers", "class_name": "Zeros", "config": {}, "registered_name": null}, "moving_variance_initializer": {"module": "keras.initializers", "class_name": "Ones", "config": {}, "registered_name": null}, "beta_regularizer": null, "gamma_regularizer": null, "beta_constraint": null, "gamma_constraint": null}, "name": "block_10_depthwise_BN", "inbound_nodes": [[["block_10_depthwise", 0, 0, {}]]]}, {"class_name": "ReLU", "config": {"name": "block_10_depthwise_relu", "trainable": false, "dtype": "float32", "max_value": 6.0, "negative_slope": 0.0, "threshold": 0.0}, "name": "block_10_depthwise_relu", "inbound_nodes": [[["block_10_depthwise_BN", 0, 0, {}]]]}, {"class_name": "Conv2D", "config": {"name": "block_10_project", "trainable": false, "dtype": "float32", "filters": 96, "kernel_size": [1, 1], "strides": [1, 1], "padding": "same", "data_format": "channels_last", "dilation_rate": [1, 1], "groups": 1, "activation": "linear", "use_bias": false, "kernel_initializer": {"module": "keras.initializers", "class_name": "GlorotUniform", "config": {"seed": null}, "registered_name": null}, "bias_initializer": {"module": "keras.initializers", "class_name": "Zeros", "config": {}, "registered_name": null}, "kernel_regularizer": null, "bias_regularizer": null, "activity_regularizer": null, "kernel_constraint": null, "bias_constraint": null}, "name": "block_10_project", "inbound_nodes": [[["block_10_depthwise_relu", 0, 0, {}]]]}, {"class_name": "BatchNormalization", "config": {"name": "block_10_project_BN", "trainable": false, "dtype": "float32", "axis": [3], "momentum": 0.999, "epsilon": 0.001, "center": true, "scale": true, "beta_initializer": {"module": "keras.initializers", "class_name": "Zeros", "config": {}, "registered_name": null}, "gamma_initializer": {"module": "keras.initializers", "class_name": "Ones", "config": {}, "registered_name": null}, "moving_mean_initializer": {"module": "keras.initializers", "class_name": "Zeros", "config": {}, "registered_name": null}, "moving_variance_initializer": {"module": "keras.initializers", "class_name": "Ones", "config": {}, "registered_name": null}, "beta_regularizer": null, "gamma_regularizer": null, "beta_constraint": null, "gamma_constraint": null}, "name": "block_10_project_BN", "inbound_nodes": [[["block_10_project", 0, 0, {}]]]}, {"class_name": "Conv2D", "config": {"name": "block_11_expand", "trainable": false, "dtype": "float32", "filters": 576, "kernel_size": [1, 1], "strides": [1, 1], "padding": "same", "data_format": "channels_last", "dilation_rate": [1, 1], "groups": 1, "activation": "linear", "use_bias": false, "kernel_initializer": {"module": "keras.initializers", "class_name": "GlorotUniform", "config": {"seed": null}, "registered_name": null}, "bias_initializer": {"module": "keras.initializers", "class_name": "Zeros", "config": {}, "registered_name": null}, "kernel_regularizer": null, "bias_regularizer": null, "activity_regularizer": null, "kernel_constraint": null, "bias_constraint": null}, "name": "block_11_expand", "inbound_nodes": [[["block_10_project_BN", 0, 0, {}]]]}, {"class_name": "BatchNormalization", "config": {"name": "block_11_expand_BN", "trainable": false, "dtype": "float32", "axis": [3], "momentum": 0.999, "epsilon": 0.001, "center": true, "scale": true, "beta_initializer": {"module": "keras.initializers", "class_name": "Zeros", "config": {}, "registered_name": null}, "gamma_initializer": {"module": "keras.initializers", "class_name": "Ones", "config": {}, "registered_name": null}, "moving_mean_initializer": {"module": "keras.initializers", "class_name": "Zeros", "config": {}, "registered_name": null}, "moving_variance_initializer": {"module": "keras.initializers", "class_name": "Ones", "config": {}, "registered_name": null}, "beta_regularizer": null, "gamma_regularizer": null, "beta_constraint": null, "gamma_constraint": null}, "name": "block_11_expand_BN", "inbound_nodes": [[["block_11_expand", 0, 0, {}]]]}, {"class_name": "ReLU", "config": {"name": "block_11_expand_relu", "trainable": false, "dtype": "float32", "max_value": 6.0, "negative_slope": 0.0, "threshold": 0.0}, "name": "block_11_expand_relu", "inbound_nodes": [[["block_11_expand_BN", 0, 0, {}]]]}, {"class_name": "DepthwiseConv2D", "config": {"name": "block_11_depthwise", "trainable": false, "dtype": "float32", "kernel_size": [3, 3], "strides": [1, 1], "padding": "same", "data_format": "channels_last", "dilation_rate": [1, 1], "groups": 1, "activation": "linear", "use_bias": false, "bias_initializer": {"module": "keras.initializers", "class_name": "Zeros", "config": {}, "registered_name": null}, "bias_regularizer": null, "activity_regularizer": null, "bias_constraint": null, "depth_multiplier": 1, "depthwise_initializer": {"module": "keras.initializers", "class_name": "GlorotUniform", "config": {"seed": null}, "registered_name": null}, "depthwise_regularizer": null, "depthwise_constraint": null}, "name": "block_11_depthwise", "inbound_nodes": [[["block_11_expand_relu", 0, 0, {}]]]}, {"class_name": "BatchNormalization", "config": {"name": "block_11_depthwise_BN", "trainable": false, "dtype": "float32", "axis": [3], "momentum": 0.999, "epsilon": 0.001, "center": true, "scale": true, "beta_initializer": {"module": "keras.initializers", "class_name": "Zeros", "config": {}, "registered_name": null}, "gamma_initializer": {"module": "keras.initializers", "class_name": "Ones", "config": {}, "registered_name": null}, "moving_mean_initializer": {"module": "keras.initializers", "class_name": "Zeros", "config": {}, "registered_name": null}, "moving_variance_initializer": {"module": "keras.initializers", "class_name": "Ones", "config": {}, "registered_name": null}, "beta_regularizer": null, "gamma_regularizer": null, "beta_constraint": null, "gamma_constraint": null}, "name": "block_11_depthwise_BN", "inbound_nodes": [[["block_11_depthwise", 0, 0, {}]]]}, {"class_name": "ReLU", "config": {"name": "block_11_depthwise_relu", "trainable": false, "dtype": "float32", "max_value": 6.0, "negative_slope": 0.0, "threshold": 0.0}, "name": "block_11_depthwise_relu", "inbound_nodes": [[["block_11_depthwise_BN", 0, 0, {}]]]}, {"class_name": "Conv2D", "config": {"name": "block_11_project", "trainable": true, "dtype": "float32", "filters": 96, "kernel_size": [1, 1], "strides": [1, 1], "padding": "same", "data_format": "channels_last", "dilation_rate": [1, 1], "groups": 1, "activation": "linear", "use_bias": false, "kernel_initializer": {"module": "keras.initializers", "class_name": "GlorotUniform", "config": {"seed": null}, "registered_name": null}, "bias_initializer": {"module": "keras.initializers", "class_name": "Zeros", "config": {}, "registered_name": null}, "kernel_regularizer": null, "bias_regularizer": null, "activity_regularizer": null, "kernel_constraint": null, "bias_constraint": null}, "name": "block_11_project", "inbound_nodes": [[["block_11_depthwise_relu", 0, 0, {}]]]}, {"class_name": "BatchNormalization", "config": {"name": "block_11_project_BN", "trainable": true, "dtype": "float32", "axis": [3], "momentum": 0.999, "epsilon": 0.001, "center": true, "scale": true, "beta_initializer": {"module": "keras.initializers", "class_name": "Zeros", "config": {}, "registered_name": null}, "gamma_initializer": {"module": "keras.initializers", "class_name": "Ones", "config": {}, "registered_name": null}, "moving_mean_initializer": {"module": "keras.initializers", "class_name": "Zeros", "config": {}, "registered_name": null}, "moving_variance_initializer": {"module": "keras.initializers", "class_name": "Ones", "config": {}, "registered_name": null}, "beta_regularizer": null, "gamma_regularizer": null, "beta_constraint": null, "gamma_constraint": null}, "name": "block_11_project_BN", "inbound_nodes": [[["block_11_project", 0, 0, {}]]]}, {"class_name": "Add", "config": {"name": "block_11_add", "trainable": true, "dtype": "float32"}, "name": "block_11_add", "inbound_nodes": [[["block_10_project_BN", 0, 0, {}], ["block_11_project_BN", 0, 0, {}]]]}, {"class_name": "Conv2D", "config": {"name": "block_12_expand", "trainable": true, "dtype": "float32", "filters": 576, "kernel_size": [1, 1], "strides": [1, 1], "padding": "same", "data_format": "channels_last", "dilation_rate": [1, 1], "groups": 1, "activation": "linear", "use_bias": false, "kernel_initializer": {"module": "keras.initializers", "class_name": "GlorotUniform", "config": {"seed": null}, "registered_name": null}, "bias_initializer": {"module": "keras.initializers", "class_name": "Zeros", "config": {}, "registered_name": null}, "kernel_regularizer": null, "bias_regularizer": null, "activity_regularizer": null, "kernel_constraint": null, "bias_constraint": null}, "name": "block_12_expand", "inbound_nodes": [[["block_11_add", 0, 0, {}]]]}, {"class_name": "BatchNormalization", "config": {"name": "block_12_expand_BN", "trainable": true, "dtype": "float32", "axis": [3], "momentum": 0.999, "epsilon": 0.001, "center": true, "scale": true, "beta_initializer": {"module": "keras.initializers", "class_name": "Zeros", "config": {}, "registered_name": null}, "gamma_initializer": {"module": "keras.initializers", "class_name": "Ones", "config": {}, "registered_name": null}, "moving_mean_initializer": {"module": "keras.initializers", "class_name": "Zeros", "config": {}, "registered_name": null}, "moving_variance_initializer": {"module": "keras.initializers", "class_name": "Ones", "config": {}, "registered_name": null}, "beta_regularizer": null, "gamma_regularizer": null, "beta_constraint": null, "gamma_constraint": null}, "name": "block_12_expand_BN", "inbound_nodes": [[["block_12_expand", 0, 0, {}]]]}, {"class_name": "ReLU", "config": {"name": "block_12_expand_relu", "trainable": true, "dtype": "float32", "max_value": 6.0, "negative_slope": 0.0, "threshold": 0.0}, "name": "block_12_expand_relu", "inbound_nodes": [[["block_12_expand_BN", 0, 0, {}]]]}, {"class_name": "DepthwiseConv2D", "config": {"name": "block_12_depthwise", "trainable": true, "dtype": "float32", "kernel_size": [3, 3], "strides": [1, 1], "padding": "same", "data_format": "channels_last", "dilation_rate": [1, 1], "groups": 1, "activation": "linear", "use_bias": false, "bias_initializer": {"module": "keras.initializers", "class_name": "Zeros", "config": {}, "registered_name": null}, "bias_regularizer": null, "activity_regularizer": null, "bias_constraint": null, "depth_multiplier": 1, "depthwise_initializer": {"module": "keras.initializers", "class_name": "GlorotUniform", "config": {"seed": null}, "registered_name": null}, "depthwise_regularizer": null, "depthwise_constraint": null}, "name": "block_12_depthwise", "inbound_nodes": [[["block_12_expand_relu", 0, 0, {}]]]}, {"class_name": "BatchNormalization", "config": {"name": "block_12_depthwise_BN", "trainable": true, "dtype": "float32", "axis": [3], "momentum": 0.999, "epsilon": 0.001, "center": true, "scale": true, "beta_initializer": {"module": "keras.initializers", "class_name": "Zeros", "config": {}, "registered_name": null}, "gamma_initializer": {"module": "keras.initializers", "class_name": "Ones", "config": {}, "registered_name": null}, "moving_mean_initializer": {"module": "keras.initializers", "class_name": "Zeros", "config": {}, "registered_name": null}, "moving_variance_initializer": {"module": "keras.initializers", "class_name": "Ones", "config": {}, "registered_name": null}, "beta_regularizer": null, "gamma_regularizer": null, "beta_constraint": null, "gamma_constraint": null}, "name": "block_12_depthwise_BN", "inbound_nodes": [[["block_12_depthwise", 0, 0, {}]]]}, {"class_name": "ReLU", "config": {"name": "block_12_depthwise_relu", "trainable": true, "dtype": "float32", "max_value": 6.0, "negative_slope": 0.0, "threshold": 0.0}, "name": "block_12_depthwise_relu", "inbound_nodes": [[["block_12_depthwise_BN", 0, 0, {}]]]}, {"class_name": "Conv2D", "config": {"name": "block_12_project", "trainable": true, "dtype": "float32", "filters": 96, "kernel_size": [1, 1], "strides": [1, 1], "padding": "same", "data_format": "channels_last", "dilation_rate": [1, 1], "groups": 1, "activation": "linear", "use_bias": false, "kernel_initializer": {"module": "keras.initializers", "class_name": "GlorotUniform", "config": {"seed": null}, "registered_name": null}, "bias_initializer": {"module": "keras.initializers", "class_name": "Zeros", "config": {}, "registered_name": null}, "kernel_regularizer": null, "bias_regularizer": null, "activity_regularizer": null, "kernel_constraint": null, "bias_constraint": null}, "name": "block_12_project", "inbound_nodes": [[["block_12_depthwise_relu", 0, 0, {}]]]}, {"class_name": "BatchNormalization", "config": {"name": "block_12_project_BN", "trainable": true, "dtype": "float32", "axis": [3], "momentum": 0.999, "epsilon": 0.001, "center": true, "scale": true, "beta_initializer": {"module": "keras.initializers", "class_name": "Zeros", "config": {}, "registered_name": null}, "gamma_initializer": {"module": "keras.initializers", "class_name": "Ones", "config": {}, "registered_name": null}, "moving_mean_initializer": {"module": "keras.initializers", "class_name": "Zeros", "config": {}, "registered_name": null}, "moving_variance_initializer": {"module": "keras.initializers", "class_name": "Ones", "config": {}, "registered_name": null}, "beta_regularizer": null, "gamma_regularizer": null, "beta_constraint": null, "gamma_constraint": null}, "name": "block_12_project_BN", "inbound_nodes": [[["block_12_project", 0, 0, {}]]]}, {"class_name": "Add", "config": {"name": "block_12_add", "trainable": true, "dtype": "float32"}, "name": "block_12_add", "inbound_nodes": [[["block_11_add", 0, 0, {}], ["block_12_project_BN", 0, 0, {}]]]}, {"class_name": "Conv2D", "config": {"name": "block_13_expand", "trainable": true, "dtype": "float32", "filters": 576, "kernel_size": [1, 1], "strides": [1, 1], "padding": "same", "data_format": "channels_last", "dilation_rate": [1, 1], "groups": 1, "activation": "linear", "use_bias": false, "kernel_initializer": {"module": "keras.initializers", "class_name": "GlorotUniform", "config": {"seed": null}, "registered_name": null}, "bias_initializer": {"module": "keras.initializers", "class_name": "Zeros", "config": {}, "registered_name": null}, "kernel_regularizer": null, "bias_regularizer": null, "activity_regularizer": null, "kernel_constraint": null, "bias_constraint": null}, "name": "block_13_expand", "inbound_nodes": [[["block_12_add", 0, 0, {}]]]}, {"class_name": "BatchNormalization", "config": {"name": "block_13_expand_BN", "trainable": true, "dtype": "float32", "axis": [3], "momentum": 0.999, "epsilon": 0.001, "center": true, "scale": true, "beta_initializer": {"module": "keras.initializers", "class_name": "Zeros", "config": {}, "registered_name": null}, "gamma_initializer": {"module": "keras.initializers", "class_name": "Ones", "config": {}, "registered_name": null}, "moving_mean_initializer": {"module": "keras.initializers", "class_name": "Zeros", "config": {}, "registered_name": null}, "moving_variance_initializer": {"module": "keras.initializers", "class_name": "Ones", "config": {}, "registered_name": null}, "beta_regularizer": null, "gamma_regularizer": null, "beta_constraint": null, "gamma_constraint": null}, "name": "block_13_expand_BN", "inbound_nodes": [[["block_13_expand", 0, 0, {}]]]}, {"class_name": "ReLU", "config": {"name": "block_13_expand_relu", "trainable": true, "dtype": "float32", "max_value": 6.0, "negative_slope": 0.0, "threshold": 0.0}, "name": "block_13_expand_relu", "inbound_nodes": [[["block_13_expand_BN", 0, 0, {}]]]}, {"class_name": "ZeroPadding2D", "config": {"name": "block_13_pad", "trainable": true, "dtype": "float32", "padding": [[0, 1], [0, 1]], "data_format": "channels_last"}, "name": "block_13_pad", "inbound_nodes": [[["block_13_expand_relu", 0, 0, {}]]]}, {"class_name": "DepthwiseConv2D", "config": {"name": "block_13_depthwise", "trainable": true, "dtype": "float32", "kernel_size": [3, 3], "strides": [2, 2], "padding": "valid", "data_format": "channels_last", "dilation_rate": [1, 1], "groups": 1, "activation": "linear", "use_bias": false, "bias_initializer": {"module": "keras.initializers", "class_name": "Zeros", "config": {}, "registered_name": null}, "bias_regularizer": null, "activity_regularizer": null, "bias_constraint": null, "depth_multiplier": 1, "depthwise_initializer": {"module": "keras.initializers", "class_name": "GlorotUniform", "config": {"seed": null}, "registered_name": null}, "depthwise_regularizer": null, "depthwise_constraint": null}, "name": "block_13_depthwise", "inbound_nodes": [[["block_13_pad", 0, 0, {}]]]}, {"class_name": "BatchNormalization", "config": {"name": "block_13_depthwise_BN", "trainable": true, "dtype": "float32", "axis": [3], "momentum": 0.999, "epsilon": 0.001, "center": true, "scale": true, "beta_initializer": {"module": "keras.initializers", "class_name": "Zeros", "config": {}, "registered_name": null}, "gamma_initializer": {"module": "keras.initializers", "class_name": "Ones", "config": {}, "registered_name": null}, "moving_mean_initializer": {"module": "keras.initializers", "class_name": "Zeros", "config": {}, "registered_name": null}, "moving_variance_initializer": {"module": "keras.initializers", "class_name": "Ones", "config": {}, "registered_name": null}, "beta_regularizer": null, "gamma_regularizer": null, "beta_constraint": null, "gamma_constraint": null}, "name": "block_13_depthwise_BN", "inbound_nodes": [[["block_13_depthwise", 0, 0, {}]]]}, {"class_name": "ReLU", "config": {"name": "block_13_depthwise_relu", "trainable": true, "dtype": "float32", "max_value": 6.0, "negative_slope": 0.0, "threshold": 0.0}, "name": "block_13_depthwise_relu", "inbound_nodes": [[["block_13_depthwise_BN", 0, 0, {}]]]}, {"class_name": "Conv2D", "config": {"name": "block_13_project", "trainable": true, "dtype": "float32", "filters": 160, "kernel_size": [1, 1], "strides": [1, 1], "padding": "same", "data_format": "channels_last", "dilation_rate": [1, 1], "groups": 1, "activation": "linear", "use_bias": false, "kernel_initializer": {"module": "keras.initializers", "class_name": "GlorotUniform", "config": {"seed": null}, "registered_name": null}, "bias_initializer": {"module": "keras.initializers", "class_name": "Zeros", "config": {}, "registered_name": null}, "kernel_regularizer": null, "bias_regularizer": null, "activity_regularizer": null, "kernel_constraint": null, "bias_constraint": null}, "name": "block_13_project", "inbound_nodes": [[["block_13_depthwise_relu", 0, 0, {}]]]}, {"class_name": "BatchNormalization", "config": {"name": "block_13_project_BN", "trainable": true, "dtype": "float32", "axis": [3], "momentum": 0.999, "epsilon": 0.001, "center": true, "scale": true, "beta_initializer": {"module": "keras.initializers", "class_name": "Zeros", "config": {}, "registered_name": null}, "gamma_initializer": {"module": "keras.initializers", "class_name": "Ones", "config": {}, "registered_name": null}, "moving_mean_initializer": {"module": "keras.initializers", "class_name": "Zeros", "config": {}, "registered_name": null}, "moving_variance_initializer": {"module": "keras.initializers", "class_name": "Ones", "config": {}, "registered_name": null}, "beta_regularizer": null, "gamma_regularizer": null, "beta_constraint": null, "gamma_constraint": null}, "name": "block_13_project_BN", "inbound_nodes": [[["block_13_project", 0, 0, {}]]]}, {"class_name": "Conv2D", "config": {"name": "block_14_expand", "trainable": true, "dtype": "float32", "filters": 960, "kernel_size": [1, 1], "strides": [1, 1], "padding": "same", "data_format": "channels_last", "dilation_rate": [1, 1], "groups": 1, "activation": "linear", "use_bias": false, "kernel_initializer": {"module": "keras.initializers", "class_name": "GlorotUniform", "config": {"seed": null}, "registered_name": null}, "bias_initializer": {"module": "keras.initializers", "class_name": "Zeros", "config": {}, "registered_name": null}, "kernel_regularizer": null, "bias_regularizer": null, "activity_regularizer": null, "kernel_constraint": null, "bias_constraint": null}, "name": "block_14_expand", "inbound_nodes": [[["block_13_project_BN", 0, 0, {}]]]}, {"class_name": "BatchNormalization", "config": {"name": "block_14_expand_BN", "trainable": true, "dtype": "float32", "axis": [3], "momentum": 0.999, "epsilon": 0.001, "center": true, "scale": true, "beta_initializer": {"module": "keras.initializers", "class_name": "Zeros", "config": {}, "registered_name": null}, "gamma_initializer": {"module": "keras.initializers", "class_name": "Ones", "config": {}, "registered_name": null}, "moving_mean_initializer": {"module": "keras.initializers", "class_name": "Zeros", "config": {}, "registered_name": null}, "moving_variance_initializer": {"module": "keras.initializers", "class_name": "Ones", "config": {}, "registered_name": null}, "beta_regularizer": null, "gamma_regularizer": null, "beta_constraint": null, "gamma_constraint": null}, "name": "block_14_expand_BN", "inbound_nodes": [[["block_14_expand", 0, 0, {}]]]}, {"class_name": "ReLU", "config": {"name": "block_14_expand_relu", "trainable": true, "dtype": "float32", "max_value": 6.0, "negative_slope": 0.0, "threshold": 0.0}, "name": "block_14_expand_relu", "inbound_nodes": [[["block_14_expand_BN", 0, 0, {}]]]}, {"class_name": "DepthwiseConv2D", "config": {"name": "block_14_depthwise", "trainable": true, "dtype": "float32", "kernel_size": [3, 3], "strides": [1, 1], "padding": "same", "data_format": "channels_last", "dilation_rate": [1, 1], "groups": 1, "activation": "linear", "use_bias": false, "bias_initializer": {"module": "keras.initializers", "class_name": "Zeros", "config": {}, "registered_name": null}, "bias_regularizer": null, "activity_regularizer": null, "bias_constraint": null, "depth_multiplier": 1, "depthwise_initializer": {"module": "keras.initializers", "class_name": "GlorotUniform", "config": {"seed": null}, "registered_name": null}, "depthwise_regularizer": null, "depthwise_constraint": null}, "name": "block_14_depthwise", "inbound_nodes": [[["block_14_expand_relu", 0, 0, {}]]]}, {"class_name": "BatchNormalization", "config": {"name": "block_14_depthwise_BN", "trainable": true, "dtype": "float32", "axis": [3], "momentum": 0.999, "epsilon": 0.001, "center": true, "scale": true, "beta_initializer": {"module": "keras.initializers", "class_name": "Zeros", "config": {}, "registered_name": null}, "gamma_initializer": {"module": "keras.initializers", "class_name": "Ones", "config": {}, "registered_name": null}, "moving_mean_initializer": {"module": "keras.initializers", "class_name": "Zeros", "config": {}, "registered_name": null}, "moving_variance_initializer": {"module": "keras.initializers", "class_name": "Ones", "config": {}, "registered_name": null}, "beta_regularizer": null, "gamma_regularizer": null, "beta_constraint": null, "gamma_constraint": null}, "name": "block_14_depthwise_BN", "inbound_nodes": [[["block_14_depthwise", 0, 0, {}]]]}, {"class_name": "ReLU", "config": {"name": "block_14_depthwise_relu", "trainable": true, "dtype": "float32", "max_value": 6.0, "negative_slope": 0.0, "threshold": 0.0}, "name": "block_14_depthwise_relu", "inbound_nodes": [[["block_14_depthwise_BN", 0, 0, {}]]]}, {"class_name": "Conv2D", "config": {"name": "block_14_project", "trainable": true, "dtype": "float32", "filters": 160, "kernel_size": [1, 1], "strides": [1, 1], "padding": "same", "data_format": "channels_last", "dilation_rate": [1, 1], "groups": 1, "activation": "linear", "use_bias": false, "kernel_initializer": {"module": "keras.initializers", "class_name": "GlorotUniform", "config": {"seed": null}, "registered_name": null}, "bias_initializer": {"module": "keras.initializers", "class_name": "Zeros", "config": {}, "registered_name": null}, "kernel_regularizer": null, "bias_regularizer": null, "activity_regularizer": null, "kernel_constraint": null, "bias_constraint": null}, "name": "block_14_project", "inbound_nodes": [[["block_14_depthwise_relu", 0, 0, {}]]]}, {"class_name": "BatchNormalization", "config": {"name": "block_14_project_BN", "trainable": true, "dtype": "float32", "axis": [3], "momentum": 0.999, "epsilon": 0.001, "center": true, "scale": true, "beta_initializer": {"module": "keras.initializers", "class_name": "Zeros", "config": {}, "registered_name": null}, "gamma_initializer": {"module": "keras.initializers", "class_name": "Ones", "config": {}, "registered_name": null}, "moving_mean_initializer": {"module": "keras.initializers", "class_name": "Zeros", "config": {}, "registered_name": null}, "moving_variance_initializer": {"module": "keras.initializers", "class_name": "Ones", "config": {}, "registered_name": null}, "beta_regularizer": null, "gamma_regularizer": null, "beta_constraint": null, "gamma_constraint": null}, "name": "block_14_project_BN", "inbound_nodes": [[["block_14_project", 0, 0, {}]]]}, {"class_name": "Add", "config": {"name": "block_14_add", "trainable": true, "dtype": "float32"}, "name": "block_14_add", "inbound_nodes": [[["block_13_project_BN", 0, 0, {}], ["block_14_project_BN", 0, 0, {}]]]}, {"class_name": "Conv2D", "config": {"name": "block_15_expand", "trainable": true, "dtype": "float32", "filters": 960, "kernel_size": [1, 1], "strides": [1, 1], "padding": "same", "data_format": "channels_last", "dilation_rate": [1, 1], "groups": 1, "activation": "linear", "use_bias": false, "kernel_initializer": {"module": "keras.initializers", "class_name": "GlorotUniform", "config": {"seed": null}, "registered_name": null}, "bias_initializer": {"module": "keras.initializers", "class_name": "Zeros", "config": {}, "registered_name": null}, "kernel_regularizer": null, "bias_regularizer": null, "activity_regularizer": null, "kernel_constraint": null, "bias_constraint": null}, "name": "block_15_expand", "inbound_nodes": [[["block_14_add", 0, 0, {}]]]}, {"class_name": "BatchNormalization", "config": {"name": "block_15_expand_BN", "trainable": true, "dtype": "float32", "axis": [3], "momentum": 0.999, "epsilon": 0.001, "center": true, "scale": true, "beta_initializer": {"module": "keras.initializers", "class_name": "Zeros", "config": {}, "registered_name": null}, "gamma_initializer": {"module": "keras.initializers", "class_name": "Ones", "config": {}, "registered_name": null}, "moving_mean_initializer": {"module": "keras.initializers", "class_name": "Zeros", "config": {}, "registered_name": null}, "moving_variance_initializer": {"module": "keras.initializers", "class_name": "Ones", "config": {}, "registered_name": null}, "beta_regularizer": null, "gamma_regularizer": null, "beta_constraint": null, "gamma_constraint": null}, "name": "block_15_expand_BN", "inbound_nodes": [[["block_15_expand", 0, 0, {}]]]}, {"class_name": "ReLU", "config": {"name": "block_15_expand_relu", "trainable": true, "dtype": "float32", "max_value": 6.0, "negative_slope": 0.0, "threshold": 0.0}, "name": "block_15_expand_relu", "inbound_nodes": [[["block_15_expand_BN", 0, 0, {}]]]}, {"class_name": "DepthwiseConv2D", "config": {"name": "block_15_depthwise", "trainable": true, "dtype": "float32", "kernel_size": [3, 3], "strides": [1, 1], "padding": "same", "data_format": "channels_last", "dilation_rate": [1, 1], "groups": 1, "activation": "linear", "use_bias": false, "bias_initializer": {"module": "keras.initializers", "class_name": "Zeros", "config": {}, "registered_name": null}, "bias_regularizer": null, "activity_regularizer": null, "bias_constraint": null, "depth_multiplier": 1, "depthwise_initializer": {"module": "keras.initializers", "class_name": "GlorotUniform", "config": {"seed": null}, "registered_name": null}, "depthwise_regularizer": null, "depthwise_constraint": null}, "name": "block_15_depthwise", "inbound_nodes": [[["block_15_expand_relu", 0, 0, {}]]]}, {"class_name": "BatchNormalization", "config": {"name": "block_15_depthwise_BN", "trainable": true, "dtype": "float32", "axis": [3], "momentum": 0.999, "epsilon": 0.001, "center": true, "scale": true, "beta_initializer": {"module": "keras.initializers", "class_name": "Zeros", "config": {}, "registered_name": null}, "gamma_initializer": {"module": "keras.initializers", "class_name": "Ones", "config": {}, "registered_name": null}, "moving_mean_initializer": {"module": "keras.initializers", "class_name": "Zeros", "config": {}, "registered_name": null}, "moving_variance_initializer": {"module": "keras.initializers", "class_name": "Ones", "config": {}, "registered_name": null}, "beta_regularizer": null, "gamma_regularizer": null, "beta_constraint": null, "gamma_constraint": null}, "name": "block_15_depthwise_BN", "inbound_nodes": [[["block_15_depthwise", 0, 0, {}]]]}, {"class_name": "ReLU", "config": {"name": "block_15_depthwise_relu", "trainable": true, "dtype": "float32", "max_value": 6.0, "negative_slope": 0.0, "threshold": 0.0}, "name": "block_15_depthwise_relu", "inbound_nodes": [[["block_15_depthwise_BN", 0, 0, {}]]]}, {"class_name": "Conv2D", "config": {"name": "block_15_project", "trainable": true, "dtype": "float32", "filters": 160, "kernel_size": [1, 1], "strides": [1, 1], "padding": "same", "data_format": "channels_last", "dilation_rate": [1, 1], "groups": 1, "activation": "linear", "use_bias": false, "kernel_initializer": {"module": "keras.initializers", "class_name": "GlorotUniform", "config": {"seed": null}, "registered_name": null}, "bias_initializer": {"module": "keras.initializers", "class_name": "Zeros", "config": {}, "registered_name": null}, "kernel_regularizer": null, "bias_regularizer": null, "activity_regularizer": null, "kernel_constraint": null, "bias_constraint": null}, "name": "block_15_project", "inbound_nodes": [[["block_15_depthwise_relu", 0, 0, {}]]]}, {"class_name": "BatchNormalization", "config": {"name": "block_15_project_BN", "trainable": true, "dtype": "float32", "axis": [3], "momentum": 0.999, "epsilon": 0.001, "center": true, "scale": true, "beta_initializer": {"module": "keras.initializers", "class_name": "Zeros", "config": {}, "registered_name": null}, "gamma_initializer": {"module": "keras.initializers", "class_name": "Ones", "config": {}, "registered_name": null}, "moving_mean_initializer": {"module": "keras.initializers", "class_name": "Zeros", "config": {}, "registered_name": null}, "moving_variance_initializer": {"module": "keras.initializers", "class_name": "Ones", "config": {}, "registered_name": null}, "beta_regularizer": null, "gamma_regularizer": null, "beta_constraint": null, "gamma_constraint": null}, "name": "block_15_project_BN", "inbound_nodes": [[["block_15_project", 0, 0, {}]]]}, {"class_name": "Add", "config": {"name": "block_15_add", "trainable": true, "dtype": "float32"}, "name": "block_15_add", "inbound_nodes": [[["block_14_add", 0, 0, {}], ["block_15_project_BN", 0, 0, {}]]]}, {"class_name": "Conv2D", "config": {"name": "block_16_expand", "trainable": true, "dtype": "float32", "filters": 960, "kernel_size": [1, 1], "strides": [1, 1], "padding": "same", "data_format": "channels_last", "dilation_rate": [1, 1], "groups": 1, "activation": "linear", "use_bias": false, "kernel_initializer": {"module": "keras.initializers", "class_name": "GlorotUniform", "config": {"seed": null}, "registered_name": null}, "bias_initializer": {"module": "keras.initializers", "class_name": "Zeros", "config": {}, "registered_name": null}, "kernel_regularizer": null, "bias_regularizer": null, "activity_regularizer": null, "kernel_constraint": null, "bias_constraint": null}, "name": "block_16_expand", "inbound_nodes": [[["block_15_add", 0, 0, {}]]]}, {"class_name": "BatchNormalization", "config": {"name": "block_16_expand_BN", "trainable": true, "dtype": "float32", "axis": [3], "momentum": 0.999, "epsilon": 0.001, "center": true, "scale": true, "beta_initializer": {"module": "keras.initializers", "class_name": "Zeros", "config": {}, "registered_name": null}, "gamma_initializer": {"module": "keras.initializers", "class_name": "Ones", "config": {}, "registered_name": null}, "moving_mean_initializer": {"module": "keras.initializers", "class_name": "Zeros", "config": {}, "registered_name": null}, "moving_variance_initializer": {"module": "keras.initializers", "class_name": "Ones", "config": {}, "registered_name": null}, "beta_regularizer": null, "gamma_regularizer": null, "beta_constraint": null, "gamma_constraint": null}, "name": "block_16_expand_BN", "inbound_nodes": [[["block_16_expand", 0, 0, {}]]]}, {"class_name": "ReLU", "config": {"name": "block_16_expand_relu", "trainable": true, "dtype": "float32", "max_value": 6.0, "negative_slope": 0.0, "threshold": 0.0}, "name": "block_16_expand_relu", "inbound_nodes": [[["block_16_expand_BN", 0, 0, {}]]]}, {"class_name": "DepthwiseConv2D", "config": {"name": "block_16_depthwise", "trainable": true, "dtype": "float32", "kernel_size": [3, 3], "strides": [1, 1], "padding": "same", "data_format": "channels_last", "dilation_rate": [1, 1], "groups": 1, "activation": "linear", "use_bias": false, "bias_initializer": {"module": "keras.initializers", "class_name": "Zeros", "config": {}, "registered_name": null}, "bias_regularizer": null, "activity_regularizer": null, "bias_constraint": null, "depth_multiplier": 1, "depthwise_initializer": {"module": "keras.initializers", "class_name": "GlorotUniform", "config": {"seed": null}, "registered_name": null}, "depthwise_regularizer": null, "depthwise_constraint": null}, "name": "block_16_depthwise", "inbound_nodes": [[["block_16_expand_relu", 0, 0, {}]]]}, {"class_name": "BatchNormalization", "config": {"name": "block_16_depthwise_BN", "trainable": true, "dtype": "float32", "axis": [3], "momentum": 0.999, "epsilon": 0.001, "center": true, "scale": true, "beta_initializer": {"module": "keras.initializers", "class_name": "Zeros", "config": {}, "registered_name": null}, "gamma_initializer": {"module": "keras.initializers", "class_name": "Ones", "config": {}, "registered_name": null}, "moving_mean_initializer": {"module": "keras.initializers", "class_name": "Zeros", "config": {}, "registered_name": null}, "moving_variance_initializer": {"module": "keras.initializers", "class_name": "Ones", "config": {}, "registered_name": null}, "beta_regularizer": null, "gamma_regularizer": null, "beta_constraint": null, "gamma_constraint": null}, "name": "block_16_depthwise_BN", "inbound_nodes": [[["block_16_depthwise", 0, 0, {}]]]}, {"class_name": "ReLU", "config": {"name": "block_16_depthwise_relu", "trainable": true, "dtype": "float32", "max_value": 6.0, "negative_slope": 0.0, "threshold": 0.0}, "name": "block_16_depthwise_relu", "inbound_nodes": [[["block_16_depthwise_BN", 0, 0, {}]]]}, {"class_name": "Conv2D", "config": {"name": "block_16_project", "trainable": true, "dtype": "float32", "filters": 320, "kernel_size": [1, 1], "strides": [1, 1], "padding": "same", "data_format": "channels_last", "dilation_rate": [1, 1], "groups": 1, "activation": "linear", "use_bias": false, "kernel_initializer": {"module": "keras.initializers", "class_name": "GlorotUniform", "config": {"seed": null}, "registered_name": null}, "bias_initializer": {"module": "keras.initializers", "class_name": "Zeros", "config": {}, "registered_name": null}, "kernel_regularizer": null, "bias_regularizer": null, "activity_regularizer": null, "kernel_constraint": null, "bias_constraint": null}, "name": "block_16_project", "inbound_nodes": [[["block_16_depthwise_relu", 0, 0, {}]]]}, {"class_name": "BatchNormalization", "config": {"name": "block_16_project_BN", "trainable": true, "dtype": "float32", "axis": [3], "momentum": 0.999, "epsilon": 0.001, "center": true, "scale": true, "beta_initializer": {"module": "keras.initializers", "class_name": "Zeros", "config": {}, "registered_name": null}, "gamma_initializer": {"module": "keras.initializers", "class_name": "Ones", "config": {}, "registered_name": null}, "moving_mean_initializer": {"module": "keras.initializers", "class_name": "Zeros", "config": {}, "registered_name": null}, "moving_variance_initializer": {"module": "keras.initializers", "class_name": "Ones", "config": {}, "registered_name": null}, "beta_regularizer": null, "gamma_regularizer": null, "beta_constraint": null, "gamma_constraint": null}, "name": "block_16_project_BN", "inbound_nodes": [[["block_16_project", 0, 0, {}]]]}, {"class_name": "Conv2D", "config": {"name": "Conv_1", "trainable": true, "dtype": "float32", "filters": 1280, "kernel_size": [1, 1], "strides": [1, 1], "padding": "valid", "data_format": "channels_last", "dilation_rate": [1, 1], "groups": 1, "activation": "linear", "use_bias": false, "kernel_initializer": {"module": "keras.initializers", "class_name": "GlorotUniform", "config": {"seed": null}, "registered_name": null}, "bias_initializer": {"module": "keras.initializers", "class_name": "Zeros", "config": {}, "registered_name": null}, "kernel_regularizer": null, "bias_regularizer": null, "activity_regularizer": null, "kernel_constraint": null, "bias_constraint": null}, "name": "Conv_1", "inbound_nodes": [[["block_16_project_BN", 0, 0, {}]]]}, {"class_name": "InputLayer", "config": {"batch_input_shape": [null, 939], "dtype": "float32", "sparse": false, "ragged": false, "name": "input_2"}, "name": "input_2", "inbound_nodes": []}, {"class_name": "BatchNormalization", "config": {"name": "Conv_1_bn", "trainable": true, "dtype": "float32", "axis": [3], "momentum": 0.999, "epsilon": 0.001, "center": true, "scale": true, "beta_initializer": {"module": "keras.initializers", "class_name": "Zeros", "config": {}, "registered_name": null}, "gamma_initializer": {"module": "keras.initializers", "class_name": "Ones", "config": {}, "registered_name": null}, "moving_mean_initializer": {"module": "keras.initializers", "class_name": "Zeros", "config": {}, "registered_name": null}, "moving_variance_initializer": {"module": "keras.initializers", "class_name": "Ones", "config": {}, "registered_name": null}, "beta_regularizer": null, "gamma_regularizer": null, "beta_constraint": null, "gamma_constraint": null}, "name": "Conv_1_bn", "inbound_nodes": [[["Conv_1", 0, 0, {}]]]}, {"class_name": "Dense", "config": {"name": "dense", "trainable": true, "dtype": "float32", "units": 128, "activation": "relu", "use_bias": true, "kernel_initializer": {"module": "keras.initializers", "class_name": "GlorotUniform", "config": {"seed": null}, "registered_name": null}, "bias_initializer": {"module": "keras.initializers", "class_name": "Zeros", "config": {}, "registered_name": null}, "kernel_regularizer": null, "bias_regularizer": null, "activity_regularizer": null, "kernel_constraint": null, "bias_constraint": null}, "name": "dense", "inbound_nodes": [[["input_2", 0, 0, {}]]]}, {"class_name": "ReLU", "config": {"name": "out_relu", "trainable": true, "dtype": "float32", "max_value": 6.0, "negative_slope": 0.0, "threshold": 0.0}, "name": "out_relu", "inbound_nodes": [[["Conv_1_bn", 0, 0, {}]]]}, {"class_name": "Dropout", "config": {"name": "dropout", "trainable": true, "dtype": "float32", "rate": 0.2, "noise_shape": null, "seed": null}, "name": "dropout", "inbound_nodes": [[["dense", 0, 0, {}]]]}, {"class_name": "GlobalAveragePooling2D", "config": {"name": "global_average_pooling2d", "trainable": true, "dtype": "float32", "data_format": "channels_last", "keepdims": false}, "name": "global_average_pooling2d", "inbound_nodes": [[["out_relu", 0, 0, {}]]]}, {"class_name": "Dense", "config": {"name": "dense_1", "trainable": true, "dtype": "float32", "units": 64, "activation": "relu", "use_bias": true, "kernel_initializer": {"module": "keras.initializers", "class_name": "GlorotUniform", "config": {"seed": null}, "registered_name": null}, "bias_initializer": {"module": "keras.initializers", "class_name": "Zeros", "config": {}, "registered_name": null}, "kernel_regularizer": null, "bias_regularizer": null, "activity_regularizer": null, "kernel_constraint": null, "bias_constraint": null}, "name": "dense_1", "inbound_nodes": [[["dropout", 0, 0, {}]]]}, {"class_name": "Concatenate", "config": {"name": "concatenate", "trainable": true, "dtype": "float32", "axis": -1}, "name": "concatenate", "inbound_nodes": [[["global_average_pooling2d", 0, 0, {}], ["dense_1", 0, 0, {}]]]}, {"class_name": "Dense", "config": {"name": "dense_2", "trainable": true, "dtype": "float32", "units": 128, "activation": "relu", "use_bias": true, "kernel_initializer": {"module": "keras.initializers", "class_name": "GlorotUniform", "config": {"seed": null}, "registered_name": null}, "bias_initializer": {"module": "keras.initializers", "class_name": "Zeros", "config": {}, "registered_name": null}, "kernel_regularizer": null, "bias_regularizer": null, "activity_regularizer": null, "kernel_constraint": null, "bias_constraint": null}, "name": "dense_2", "inbound_nodes": [[["concatenate", 0, 0, {}]]]}, {"class_name": "Dropout", "config": {"name": "dropout_1", "trainable": true, "dtype": "float32", "rate": 0.3, "noise_shape": null, "seed": null}, "name": "dropout_1", "inbound_nodes": [[["dense_2", 0, 0, {}]]]}, {"class_name": "Dense", "config": {"name": "dense_3", "trainable": true, "dtype": "float32", "units": 5, "activation": "softmax", "use_bias": true, "kernel_initializer": {"module": "keras.initializers", "class_name": "GlorotUniform", "config": {"seed": null}, "registered_name": null}, "bias_initializer": {"module": "keras.initializers", "class_name": "Zeros", "config": {}, "registered_name": null}, "kernel_regularizer": null, "bias_regularizer": null, "activity_regularizer": null, "kernel_constraint": null, "bias_constraint": null}, "name": "dense_3", "inbound_nodes": [[["dropout_1", 0, 0, {}]]]}], "input_layers": [["input_1", 0, 0], ["input_2", 0, 0]], "output_layers": [["dense_3", 0, 0]]}}, "training_config": {"loss": "categorical_crossentropy", "metrics": [[{"class_name": "MeanMetricWrapper", "config": {"name": "accuracy", "dtype": "float32", "fn": "categorical_accuracy"}}]], "weighted_metrics": null, "loss_weights": null, "optimizer_config": {"class_name": "Custom>Adam", "config": {"name": "Adam", "weight_decay": null, "clipnorm": null, "global_clipnorm": null, "clipvalue": null, "use_ema": false, "ema_momentum": 0.99, "ema_overwrite_frequency": null, "jit_compile": false, "is_legacy_optimizer": false, "learning_rate": 9.999999747378752e-05, "beta_1": 0.9, "beta_2": 0.999, "epsilon": 1e-07, "amsgrad": false}}}}, "weightsManifest": [{"paths": ["group1-shard1of1.bin"], "weights": [{"name": "Conv1/kernel", "shape": [3, 3, 3, 32], "dtype": "float32", "quantization": {"dtype": "uint8", "min": -0.7731621312160117, "scale": 0.005947401009353937, "original_dtype": "float32"}}, {"name": "Conv_1/kernel", "shape": [1, 1, 320, 1280], "dtype": "float32", "quantization": {"dtype": "uint8", "min": -0.17132781744003298, "scale": 0.001328122615814209, "original_dtype": "float32"}}, {"name": "Conv_1_bn/gamma", "shape": [1280], "dtype": "float32", "quantization": {"dtype": "uint8", "min": 4.04273796081543, "scale": 0.0043411460577272905, "original_dtype": "float32"}}, {"name": "Conv_1_bn/beta", "shape": [1280], "dtype": "float32", "quantization": {"dtype": "uint8", "min": -5.499942302703857, "scale": 0.007143403969559015, "original_dtype": "float32"}}, {"name": "Conv_1_bn/moving_mean", "shape": [1280], "dtype": "float32", "quantization": {"dtype": "uint8", "min": -0.002868099631193806, "scale": 2.0486425937098614e-05, "original_dtype": "float32"}}, {"name": "Conv_1_bn/moving_variance", "shape": [1280], "dtype": "float32", "quantization": {"dtype": "uint8", "min": 1.5017253160476685, "scale": 0.029324284254335888, "original_dtype": "float32"}}, {"name": "block_10_depthwise/depthwise_kernel", "shape": [3, 3, 384, 1], "dtype": "float32", "quantization": {"dtype": "uint8", "min": -4.09272429522346, "scale": 0.03410603579352884, "original_dtype": "float32"}}, {"name": "block_10_depthwise_BN/gamma", "shape": [384], "dtype": "float32", "quantization": {"dtype": "uint8", "min": 0.3947252929210663, "scale": 0.007295111230775422, "original_dtype": "float32"}}, {"name": "block_10_depthwise_BN/beta", "shape": [384], "dtype": "float32", "quantization": {"dtype": "uint8", "min": -1.670700746424058, "scale": 0.02320417703366747, "original_dtype": "float32"}}, {"name": "block_10_depthwise_BN/moving_mean", "shape": [384], "dtype": "float32", "quantization": {"dtype": "uint8", "min": -10.720262035669066, "scale": 0.06343350316963944, "original_dtype": "float32"}}, {"name": "block_10_depthwise_BN/moving_variance", "shape": [384], "dtype": "float32", "quantization": {"dtype": "uint8", "min": 0.2261006385087967, "scale": 0.08121434491054684, "original_dtype": "float32"}}, {"name": "block_10_expand/kernel", "shape": [1, 1, 64, 384], "dtype": "float32", "quantization": {"dtype": "uint8", "min": -0.4761982343944849, "scale": 0.003809585875155879, "original_dtype": "float32"}}, {"name": "block_10_expand_BN/gamma", "shape": [384], "dtype": "float32", "quantization": {"dtype": "uint8", "min": 0.3168369233608246, "scale": 0.006766412421768787, "original_dtype": "float32"}}, {"name": "block_10_expand_BN/beta", "shape": [384], "dtype": "float32", "quantization": {"dtype": "uint8", "min": -1.9368642568588255, "scale": 0.016276170225704416, "original_dtype": "float32"}}, {"name": "block_10_expand_BN/moving_mean", "shape": [384], "dtype": "float32", "quantization": {"dtype": "uint8", "min": -0.016679711742144006, "scale": 0.00011999792620247486, "original_dtype": "float32"}}, {"name": "block_10_expand_BN/moving_variance", "shape": [384], "dtype": "float32", "quantization": {"dtype": "uint8", "min": 2.5221614837646484, "scale": 0.08197173324285768, "original_dtype": "float32"}}, {"name": "block_10_project/kernel", "shape": [1, 1, 384, 96], "dtype": "float32", "quantization": {"dtype": "uint8", "min": -0.36699118567448036, "scale": 0.00333628350613164, "original_dtype": "float32"}}, {"name": "block_10_project_BN/gamma", "shape": [96], "dtype": "float32", "quantization": {"dtype": "uint8", "min": 1.8237571716308594, "scale": 0.010015117420869715, "original_dtype": "float32"}}, {"name": "block_10_project_BN/beta", "shape": [96], "dtype": "float32", "quantization": {"dtype": "uint8", "min": -0.007311846215423999, "scale": 5.337114025856934e-05, "original_dtype": "float32"}}, {"name": "block_10_project_BN/moving_mean", "shape": [96], "dtype": "float32", "quantization": {"dtype": "uint8", "min": -4.48044236314063, "scale": 0.030687961391374176, "original_dtype": "float32"}}, {"name": "block_10_project_BN/moving_variance", "shape": [96], "dtype": "float32", "quantization": {"dtype": "uint8", "min": 0.4458947479724884, "scale": 0.019868355054481358, "original_dtype": "float32"}}, {"name": "block_11_depthwise/depthwise_kernel", "shape": [3, 3, 576, 1], "dtype": "float32", "quantization": {"dtype": "uint8", "min": -3.1214938893037685, "scale": 0.02419762704886642, "original_dtype": "float32"}}, {"name": "block_11_depthwise_BN/gamma", "shape": [576], "dtype": "float32", "quantization": {"dtype": "uint8", "min": 0.25280311703681946, "scale": 0.012027501008089851, "original_dtype": "float32"}}, {"name": "block_11_depthwise_BN/beta", "shape": [576], "dtype": "float32", "quantization": {"dtype": "uint8", "min": -3.5117003122965493, "scale": 0.024218622843424478, "original_dtype": "float32"}}, {"name": "block_11_depthwise_BN/moving_mean", "shape": [576], "dtype": "float32", "quantization": {"dtype": "uint8", "min": -7.005083883509917, "scale": 0.04096540282754337, "original_dtype": "float32"}}, {"name": "block_11_depthwise_BN/moving_variance", "shape": [576], "dtype": "float32", "quantization": {"dtype": "uint8", "min": 0.0001984603441087529, "scale": 0.043139876194547074, "original_dtype": "float32"}}, {"name": "block_11_expand/kernel", "shape": [1, 1, 96, 576], "dtype": "float32", "quantization": {"dtype": "uint8", "min": -0.2976695640414369, "scale": 0.002325543469073726, "original_dtype": "float32"}}, {"name": "block_11_expand_BN/gamma", "shape": [576], "dtype": "float32", "quantization": {"dtype": "uint8", "min": 0.0032904082909226418, "scale": 0.011152202033383005, "original_dtype": "float32"}}, {"name": "block_11_expand_BN/beta", "shape": [576], "dtype": "float32", "quantization": {"dtype": "uint8", "min": -1.6863113711862003, "scale": 0.018736793013180004, "original_dtype": "float32"}}, {"name": "block_11_expand_BN/moving_mean", "shape": [576], "dtype": "float32", "quantization": {"dtype": "uint8", "min": -0.0033660420472277144, "scale": 2.589263113252088e-05, "original_dtype": "float32"}}, {"name": "block_11_expand_BN/moving_variance", "shape": [576], "dtype": "float32", "quantization": {"dtype": "uint8", "min": 1.5925837241310102e-14, "scale": 0.030329165739171583, "original_dtype": "float32"}}, {"name": "block_11_project/kernel", "shape": [1, 1, 576, 96], "dtype": "float32", "quantization": {"dtype": "uint8", "min": -0.2604130767139734, "scale": 0.0020504966670391606, "original_dtype": "float32"}}, {"name": "block_11_project_BN/gamma", "shape": [96], "dtype": "float32", "quantization": {"dtype": "uint8", "min": 0.6615192890167236, "scale": 0.008041012520883597, "original_dtype": "float32"}}, {"name": "block_11_project_BN/beta", "shape": [96], "dtype": "float32", "quantization": {"dtype": "uint8", "min": -0.0068985879421234126, "scale": 4.790686070919037e-05, "original_dtype": "float32"}}, {"name": "block_11_project_BN/moving_mean", "shape": [96], "dtype": "float32", "quantization": {"dtype": "uint8", "min": -2.2495118337519027, "scale": 0.019226596869674383, "original_dtype": "float32"}}, {"name": "block_11_project_BN/moving_variance", "shape": [96], "dtype": "float32", "quantization": {"dtype": "uint8", "min": 0.13614803552627563, "scale": 0.0013259704206504074, "original_dtype": "float32"}}, {"name": "block_12_depthwise/depthwise_kernel", "shape": [3, 3, 576, 1], "dtype": "float32", "quantization": {"dtype": "uint8", "min": -3.0705619615667006, "scale": 0.024963918386721143, "original_dtype": "float32"}}, {"name": "block_12_depthwise_BN/gamma", "shape": [576], "dtype": "float32", "quantization": {"dtype": "uint8", "min": 0.19855983555316925, "scale": 0.018265822997280197, "original_dtype": "float32"}}, {"name": "block_12_depthwise_BN/beta", "shape": [576], "dtype": "float32", "quantization": {"dtype": "uint8", "min": -5.974442541833017, "scale": 0.036429527694103764, "original_dtype": "float32"}}, {"name": "block_12_depthwise_BN/moving_mean", "shape": [576], "dtype": "float32", "quantization": {"dtype": "uint8", "min": -10.806011480443619, "scale": 0.05513271163491642, "original_dtype": "float32"}}, {"name": "block_12_depthwise_BN/moving_variance", "shape": [576], "dtype": "float32", "quantization": {"dtype": "uint8", "min": 4.012963472632691e-05, "scale": 0.03712847437027627, "original_dtype": "float32"}}, {"name": "block_12_expand/kernel", "shape": [1, 1, 96, 576], "dtype": "float32", "quantization": {"dtype": "uint8", "min": -0.24706323707804959, "scale": 0.0020588603089837466, "original_dtype": "float32"}}, {"name": "block_12_expand_BN/gamma", "shape": [576], "dtype": "float32", "quantization": {"dtype": "uint8", "min": 0.24798409640789032, "scale": 0.009888653953870138, "original_dtype": "float32"}}, {"name": "block_12_expand_BN/beta", "shape": [576], "dtype": "float32", "quantization": {"dtype": "uint8", "min": -1.9344442311455223, "scale": 0.016533711377312157, "original_dtype": "float32"}}, {"name": "block_12_expand_BN/moving_mean", "shape": [576], "dtype": "float32", "quantization": {"dtype": "uint8", "min": -1.381569048937629, "scale": 0.011052552391501033, "original_dtype": "float32"}}, {"name": "block_12_expand_BN/moving_variance", "shape": [576], "dtype": "float32", "quantization": {"dtype": "uint8", "min": 0.8848884701728821, "scale": 0.025764436114068125, "original_dtype": "float32"}}, {"name": "block_12_project/kernel", "shape": [1, 1, 576, 96], "dtype": "float32", "quantization": {"dtype": "uint8", "min": -0.46456318859960516, "scale": 0.003203884059307622, "original_dtype": "float32"}}, {"name": "block_12_project_BN/gamma", "shape": [96], "dtype": "float32", "quantization": {"dtype": "uint8", "min": 0.760493278503418, "scale": 0.013299195906695198, "original_dtype": "float32"}}, {"name": "block_12_project_BN/beta", "shape": [96], "dtype": "float32", "quantization": {"dtype": "uint8", "min": -0.006578316943099102, "scale": 4.80169119934241e-05, "original_dtype": "float32"}}, {"name": "block_12_project_BN/moving_mean", "shape": [96], "dtype": "float32", "quantization": {"dtype": "uint8", "min": -1.9701261155745562, "scale": 0.014702433698317583, "original_dtype": "float32"}}, {"name": "block_12_project_BN/moving_variance", "shape": [96], "dtype": "float32", "quantization": {"dtype": "uint8", "min": 0.08813910186290741, "scale": 0.0017866511555279002, "original_dtype": "float32"}}, {"name": "block_13_depthwise/depthwise_kernel", "shape": [3, 3, 576, 1], "dtype": "float32", "quantization": {"dtype": "uint8", "min": -1.465487008936265, "scale": 0.01110217431012322, "original_dtype": "float32"}}, {"name": "block_13_depthwise_BN/gamma", "shape": [576], "dtype": "float32", "quantization": {"dtype": "uint8", "min": 0.31116387248039246, "scale": 0.005674247765073589, "original_dtype": "float32"}}, {"name": "block_13_depthwise_BN/beta", "shape": [576], "dtype": "float32", "quantization": {"dtype": "uint8", "min": -2.271833273943733, "scale": 0.027045634213615867, "original_dtype": "float32"}}, {"name": "block_13_depthwise_BN/moving_mean", "shape": [576], "dtype": "float32", "quantization": {"dtype": "uint8", "min": -8.08220510856778, "scale": 0.04839643777585497, "original_dtype": "float32"}}, {"name": "block_13_depthwise_BN/moving_variance", "shape": [576], "dtype": "float32", "quantization": {"dtype": "uint8", "min": 0.01586473546922207, "scale": 0.06079046443543013, "original_dtype": "float32"}}, {"name": "block_13_expand/kernel", "shape": [1, 1, 96, 576], "dtype": "float32", "quantization": {"dtype": "uint8", "min": -0.4292507283827838, "scale": 0.0032518994574453315, "original_dtype": "float32"}}, {"name": "block_13_expand_BN/gamma", "shape": [576], "dtype": "float32", "quantization": {"dtype": "uint8", "min": 0.1069861426949501, "scale": 0.007197362856537688, "original_dtype": "float32"}}, {"name": "block_13_expand_BN/beta", "shape": [576], "dtype": "float32", "quantization": {"dtype": "uint8", "min": -2.79190876156676, "scale": 0.01966132930680817, "original_dtype": "float32"}}, {"name": "block_13_expand_BN/moving_mean", "shape": [576], "dtype": "float32", "quantization": {"dtype": "uint8", "min": -1.8072075282826143, "scale": 0.014574254260343663, "original_dtype": "float32"}}, {"name": "block_13_expand_BN/moving_variance", "shape": [576], "dtype": "float32", "quantization": {"dtype": "uint8", "min": 1.3426178693771362, "scale": 0.04165086979959525, "original_dtype": "float32"}}, {"name": "block_13_project/kernel", "shape": [1, 1, 576, 160], "dtype": "float32", "quantization": {"dtype": "uint8", "min": -0.38573078548207, "scale": 0.0029671598883236157, "original_dtype": "float32"}}, {"name": "block_13_project_BN/gamma", "shape": [160], "dtype": "float32", "quantization": {"dtype": "uint8", "min": 1.5561121702194214, "scale": 0.005834750100678089, "original_dtype": "float32"}}, {"name": "block_13_project_BN/beta", "shape": [160], "dtype": "float32", "quantization": {"dtype": "uint8", "min": -0.0048572111728728985, "scale": 4.8572111728728986e-05, "original_dtype": "float32"}}, {"name": "block_13_project_BN/moving_mean", "shape": [160], "dtype": "float32", "quantization": {"dtype": "uint8", "min": -4.132741847692751, "scale": 0.03862375558591356, "original_dtype": "float32"}}, {"name": "block_13_project_BN/moving_variance", "shape": [160], "dtype": "float32", "quantization": {"dtype": "uint8", "min": 0.23620231449604034, "scale": 0.007615199451353036, "original_dtype": "float32"}}, {"name": "block_14_depthwise/depthwise_kernel", "shape": [3, 3, 960, 1], "dtype": "float32", "quantization": {"dtype": "uint8", "min": -3.833963147331686, "scale": 0.026624744078692267, "original_dtype": "float32"}}, {"name": "block_14_depthwise_BN/gamma", "shape": [960], "dtype": "float32", "quantization": {"dtype": "uint8", "min": 0.28293055295944214, "scale": 0.01736486963197297, "original_dtype": "float32"}}, {"name": "block_14_depthwise_BN/beta", "shape": [960], "dtype": "float32", "quantization": {"dtype": "uint8", "min": -5.421865673626171, "scale": 0.03285979196137073, "original_dtype": "float32"}}, {"name": "block_14_depthwise_BN/moving_mean", "shape": [960], "dtype": "float32", "quantization": {"dtype": "uint8", "min": -6.285384273529053, "scale": 0.04949121475219727, "original_dtype": "float32"}}, {"name": "block_14_depthwise_BN/moving_variance", "shape": [960], "dtype": "float32", "quantization": {"dtype": "uint8", "min": 2.067067543976009e-05, "scale": 0.09217092598270278, "original_dtype": "float32"}}, {"name": "block_14_expand/kernel", "shape": [1, 1, 160, 960], "dtype": "float32", "quantization": {"dtype": "uint8", "min": -0.2982384976218729, "scale": 0.0023669722033481974, "original_dtype": "float32"}}, {"name": "block_14_expand_BN/gamma", "shape": [960], "dtype": "float32", "quantization": {"dtype": "uint8", "min": 0.2955835163593292, "scale": 0.008825319771673164, "original_dtype": "float32"}}, {"name": "block_14_expand_BN/beta", "shape": [960], "dtype": "float32", "quantization": {"dtype": "uint8", "min": -1.8808458085153617, "scale": 0.01593937125860476, "original_dtype": "float32"}}, {"name": "block_14_expand_BN/moving_mean", "shape": [960], "dtype": "float32", "quantization": {"dtype": "uint8", "min": -0.003303605644032359, "scale": 2.776139196665848e-05, "original_dtype": "float32"}}, {"name": "block_14_expand_BN/moving_variance", "shape": [960], "dtype": "float32", "quantization": {"dtype": "uint8", "min": 0.6999268531799316, "scale": 0.012288513370588713, "original_dtype": "float32"}}, {"name": "block_14_project/kernel", "shape": [1, 1, 960, 160], "dtype": "float32", "quantization": {"dtype": "uint8", "min": -0.2663224585500418, "scale": 0.0019159889104319553, "original_dtype": "float32"}}, {"name": "block_14_project_BN/gamma", "shape": [160], "dtype": "float32", "quantization": {"dtype": "uint8", "min": 0.8265460729598999, "scale": 0.0070105678894940545, "original_dtype": "float32"}}, {"name": "block_14_project_BN/beta", "shape": [160], "dtype": "float32", "quantization": {"dtype": "uint8", "min": -0.0038623098758798022, "scale": 3.273143962610002e-05, "original_dtype": "float32"}}, {"name": "block_14_project_BN/moving_mean", "shape": [160], "dtype": "float32", "quantization": {"dtype": "uint8", "min": -2.425154223161585, "scale": 0.018512627657722023, "original_dtype": "float32"}}, {"name": "block_14_project_BN/moving_variance", "shape": [160], "dtype": "float32", "quantization": {"dtype": "uint8", "min": 0.23390433192253113, "scale": 0.0012110982455459296, "original_dtype": "float32"}}, {"name": "block_15_depthwise/depthwise_kernel", "shape": [3, 3, 960, 1], "dtype": "float32", "quantization": {"dtype": "uint8", "min": -3.7937671754874436, "scale": 0.028524565229228898, "original_dtype": "float32"}}, {"name": "block_15_depthwise_BN/gamma", "shape": [960], "dtype": "float32", "quantization": {"dtype": "uint8", "min": 0.1429944485425949, "scale": 0.017132274601973738, "original_dtype": "float32"}}, {"name": "block_15_depthwise_BN/beta", "shape": [960], "dtype": "float32", "quantization": {"dtype": "uint8", "min": -6.158686275108188, "scale": 0.03580631555295458, "original_dtype": "float32"}}, {"name": "block_15_depthwise_BN/moving_mean", "shape": [960], "dtype": "float32", "quantization": {"dtype": "uint8", "min": -15.105468660242417, "scale": 0.09210651622099035, "original_dtype": "float32"}}, {"name": "block_15_depthwise_BN/moving_variance", "shape": [960], "dtype": "float32", "quantization": {"dtype": "uint8", "min": 2.7489963940752205e-06, "scale": 0.08876976730297446, "original_dtype": "float32"}}, {"name": "block_15_expand/kernel", "shape": [1, 1, 160, 960], "dtype": "float32", "quantization": {"dtype": "uint8", "min": -0.28631119167103486, "scale": 0.002308961223153507, "original_dtype": "float32"}}, {"name": "block_15_expand_BN/gamma", "shape": [960], "dtype": "float32", "quantization": {"dtype": "uint8", "min": 0.1895238161087036, "scale": 0.010323550186905206, "original_dtype": "float32"}}, {"name": "block_15_expand_BN/beta", "shape": [960], "dtype": "float32", "quantization": {"dtype": "uint8", "min": -2.0528092029047946, "scale": 0.018328653597364238, "original_dtype": "float32"}}, {"name": "block_15_expand_BN/moving_mean", "shape": [960], "dtype": "float32", "quantization": {"dtype": "uint8", "min": -0.004790753117013795, "scale": 4.743319917835441e-05, "original_dtype": "float32"}}, {"name": "block_15_expand_BN/moving_variance", "shape": [960], "dtype": "float32", "quantization": {"dtype": "uint8", "min": 1.1160434484481812, "scale": 0.028709922584832882, "original_dtype": "float32"}}, {"name": "block_15_project/kernel", "shape": [1, 1, 960, 160], "dtype": "float32", "quantization": {"dtype": "uint8", "min": -0.4386231046096951, "scale": 0.0033740238816130394, "original_dtype": "float32"}}, {"name": "block_15_project_BN/gamma", "shape": [160], "dtype": "float32", "quantization": {"dtype": "uint8", "min": 1.2262858152389526, "scale": 0.01083516186358882, "original_dtype": "float32"}}, {"name": "block_15_project_BN/beta", "shape": [160], "dtype": "float32", "quantization": {"dtype": "uint8", "min": -0.0029809162641565, "scale": 2.144544074932734e-05, "original_dtype": "float32"}}, {"name": "block_15_project_BN/moving_mean", "shape": [160], "dtype": "float32", "quantization": {"dtype": "uint8", "min": -2.5788011490129956, "scale": 0.01544192304798201, "original_dtype": "float32"}}, {"name": "block_15_project_BN/moving_variance", "shape": [160], "dtype": "float32", "quantization": {"dtype": "uint8", "min": 0.058633528649806976, "scale": 0.000669799219159519, "original_dtype": "float32"}}, {"name": "block_16_depthwise/depthwise_kernel", "shape": [3, 3, 960, 1], "dtype": "float32", "quantization": {"dtype": "uint8", "min": -2.791026508106905, "scale": 0.023258554234224207, "original_dtype": "float32"}}, {"name": "block_16_depthwise_BN/gamma", "shape": [960], "dtype": "float32", "quantization": {"dtype": "uint8", "min": 0.458132803440094, "scale": 0.011812862461688473, "original_dtype": "float32"}}, {"name": "block_16_depthwise_BN/beta", "shape": [960], "dtype": "float32", "quantization": {"dtype": "uint8", "min": -3.7508041381835935, "scale": 0.032334518432617185, "original_dtype": "float32"}}, {"name": "block_16_depthwise_BN/moving_mean", "shape": [960], "dtype": "float32", "quantization": {"dtype": "uint8", "min": -5.324664373958813, "scale": 0.03391505970674403, "original_dtype": "float32"}}, {"name": "block_16_depthwise_BN/moving_variance", "shape": [960], "dtype": "float32", "quantization": {"dtype": "uint8", "min": 9.213343332703516e-07, "scale": 0.25404605878160863, "original_dtype": "float32"}}, {"name": "block_16_expand/kernel", "shape": [1, 1, 160, 960], "dtype": "float32", "quantization": {"dtype": "uint8", "min": -0.37380565007527666, "scale": 0.00306398073832194, "original_dtype": "float32"}}, {"name": "block_16_expand_BN/gamma", "shape": [960], "dtype": "float32", "quantization": {"dtype": "uint8", "min": 0.27612945437431335, "scale": 0.013245118949927536, "original_dtype": "float32"}}, {"name": "block_16_expand_BN/beta", "shape": [960], "dtype": "float32", "quantization": {"dtype": "uint8", "min": -1.8340465171664369, "scale": 0.015542767094630821, "original_dtype": "float32"}}, {"name": "block_16_expand_BN/moving_mean", "shape": [960], "dtype": "float32", "quantization": {"dtype": "uint8", "min": -0.007582769694500694, "scale": 7.50769276683237e-05, "original_dtype": "float32"}}, {"name": "block_16_expand_BN/moving_variance", "shape": [960], "dtype": "float32", "quantization": {"dtype": "uint8", "min": 1.8606903553009033, "scale": 0.1158171064713422, "original_dtype": "float32"}}, {"name": "block_16_project/kernel", "shape": [1, 1, 960, 320], "dtype": "float32", "quantization": {"dtype": "uint8", "min": -0.45565406890476445, "scale": 0.003962209294824039, "original_dtype": "float32"}}, {"name": "block_16_project_BN/gamma", "shape": [320], "dtype": "float32", "quantization": {"dtype": "uint8", "min": 1.7230228185653687, "scale": 0.007109372288573022, "original_dtype": "float32"}}, {"name": "block_16_project_BN/beta", "shape": [320], "dtype": "float32", "quantization": {"dtype": "uint8", "min": -0.002847780199611888, "scale": 2.6368335181591557e-05, "original_dtype": "float32"}}, {"name": "block_16_project_BN/moving_mean", "shape": [320], "dtype": "float32", "quantization": {"dtype": "uint8", "min": -8.920531242034015, "scale": 0.05039848159341251, "original_dtype": "float32"}}, {"name": "block_16_project_BN/moving_variance", "shape": [320], "dtype": "float32", "quantization": {"dtype": "uint8", "min": 0.6439973711967468, "scale": 0.01923256785261865, "original_dtype": "float32"}}, {"name": "block_1_depthwise/depthwise_kernel", "shape": [3, 3, 96, 1], "dtype": "float32", "quantization": {"dtype": "uint8", "min": -3.0725193799710744, "scale": 0.025392722148521275, "original_dtype": "float32"}}, {"name": "block_1_depthwise_BN/gamma", "shape": [96], "dtype": "float32", "quantization": {"dtype": "uint8", "min": 0.45326632261276245, "scale": 0.011622508600646375, "original_dtype": "float32"}}, {"name": "block_1_depthwise_BN/beta", "shape": [96], "dtype": "float32", "quantization": {"dtype": "uint8", "min": -4.131769672094607, "scale": 0.0341468567941703, "original_dtype": "float32"}}, {"name": "block_1_depthwise_BN/moving_mean", "shape": [96], "dtype": "float32", "quantization": {"dtype": "uint8", "min": -28.681035838407627, "scale": 0.2655651466519225, "original_dtype": "float32"}}, {"name": "block_1_depthwise_BN/moving_variance", "shape": [96], "dtype": "float32", "quantization": {"dtype": "uint8", "min": 0.16565752029418945, "scale": 0.8500873920964259, "original_dtype": "float32"}}, {"name": "block_1_expand/kernel", "shape": [1, 1, 16, 96], "dtype": "float32", "quantization": {"dtype": "uint8", "min": -1.123040149492376, "scale": 0.006975404655232149, "original_dtype": "float32"}}, {"name": "block_1_expand_BN/gamma", "shape": [96], "dtype": "float32", "quantization": {"dtype": "uint8", "min": 0.20588980615139008, "scale": 0.03753212906566321, "original_dtype": "float32"}}, {"name": "block_1_expand_BN/beta", "shape": [96], "dtype": "float32", "quantization": {"dtype": "uint8", "min": -2.2416487301097194, "scale": 0.028020609126371495, "original_dtype": "float32"}}, {"name": "block_1_expand_BN/moving_mean", "shape": [96], "dtype": "float32", "quantization": {"dtype": "uint8", "min": -0.05371397143485499, "scale": 0.00036790391393736295, "original_dtype": "float32"}}, {"name": "block_1_expand_BN/moving_variance", "shape": [96], "dtype": "float32", "quantization": {"dtype": "uint8", "min": 1.6491490602493286, "scale": 0.0584666602751788, "original_dtype": "float32"}}, {"name": "block_1_project/kernel", "shape": [1, 1, 96, 24], "dtype": "float32", "quantization": {"dtype": "uint8", "min": -1.2286525053136488, "scale": 0.0074463788200827205, "original_dtype": "float32"}}, {"name": "block_1_project_BN/gamma", "shape": [24], "dtype": "float32", "quantization": {"dtype": "uint8", "min": 1.9872292280197144, "scale": 0.013049210286607929, "original_dtype": "float32"}}, {"name": "block_1_project_BN/beta", "shape": [24], "dtype": "float32", "quantization": {"dtype": "uint8", "min": -0.010182667633189875, "scale": 8.081482248563392e-05, "original_dtype": "float32"}}, {"name": "block_1_project_BN/moving_mean", "shape": [24], "dtype": "float32", "quantization": {"dtype": "uint8", "min": -5.111529929965151, "scale": 0.03194706206228219, "original_dtype": "float32"}}, {"name": "block_1_project_BN/moving_variance", "shape": [24], "dtype": "float32", "quantization": {"dtype": "uint8", "min": 0.21607929468154907, "scale": 0.01081465809952979, "original_dtype": "float32"}}, {"name": "block_2_depthwise/depthwise_kernel", "shape": [3, 3, 144, 1], "dtype": "float32", "quantization": {"dtype": "uint8", "min": -7.222774090486414, "scale": 0.05872174057306028, "original_dtype": "float32"}}, {"name": "block_2_depthwise_BN/gamma", "shape": [144], "dtype": "float32", "quantization": {"dtype": "uint8", "min": 0.41318702697753906, "scale": 0.008272699281281116, "original_dtype": "float32"}}, {"name": "block_2_depthwise_BN/beta", "shape": [144], "dtype": "float32", "quantization": {"dtype": "uint8", "min": -3.2913754631491265, "scale": 0.03428516107447007, "original_dtype": "float32"}}, {"name": "block_2_depthwise_BN/moving_mean", "shape": [144], "dtype": "float32", "quantization": {"dtype": "uint8", "min": -11.407193529839608, "scale": 0.06003786068336636, "original_dtype": "float32"}}, {"name": "block_2_depthwise_BN/moving_variance", "shape": [144], "dtype": "float32", "quantization": {"dtype": "uint8", "min": 3.917904591177378e-36, "scale": 0.1423613155589384, "original_dtype": "float32"}}, {"name": "block_2_expand/kernel", "shape": [1, 1, 24, 144], "dtype": "float32", "quantization": {"dtype": "uint8", "min": -0.46050055424372355, "scale": 0.003869752556669946, "original_dtype": "float32"}}, {"name": "block_2_expand_BN/gamma", "shape": [144], "dtype": "float32", "quantization": {"dtype": "uint8", "min": 0.18224389851093292, "scale": 0.01641110596703548, "original_dtype": "float32"}}, {"name": "block_2_expand_BN/beta", "shape": [144], "dtype": "float32", "quantization": {"dtype": "uint8", "min": -2.583141803741455, "scale": 0.028701575597127278, "original_dtype": "float32"}}, {"name": "block_2_expand_BN/moving_mean", "shape": [144], "dtype": "float32", "quantization": {"dtype": "uint8", "min": -0.007752376210455801, "scale": 6.056543914418595e-05, "original_dtype": "float32"}}, {"name": "block_2_expand_BN/moving_variance", "shape": [144], "dtype": "float32", "quantization": {"dtype": "uint8", "min": 1.3055187197026178e-34, "scale": 0.07765527613022748, "original_dtype": "float32"}}, {"name": "block_2_project/kernel", "shape": [1, 1, 144, 24], "dtype": "float32", "quantization": {"dtype": "uint8", "min": -0.46451136458153813, "scale": 0.004147422898049448, "original_dtype": "float32"}}, {"name": "block_2_project_BN/gamma", "shape": [24], "dtype": "float32", "quantization": {"dtype": "uint8", "min": 1.4455021619796753, "scale": 0.024712606037364287, "original_dtype": "float32"}}, {"name": "block_2_project_BN/beta", "shape": [24], "dtype": "float32", "quantization": {"dtype": "uint8", "min": -0.006625267572920112, "scale": 5.662621857196677e-05, "original_dtype": "float32"}}, {"name": "block_2_project_BN/moving_mean", "shape": [24], "dtype": "float32", "quantization": {"dtype": "uint8", "min": -4.285556035883287, "scale": 0.03726570465985467, "original_dtype": "float32"}}, {"name": "block_2_project_BN/moving_variance", "shape": [24], "dtype": "float32", "quantization": {"dtype": "uint8", "min": 0.43833276629447937, "scale": 0.004501188619464052, "original_dtype": "float32"}}, {"name": "block_3_depthwise/depthwise_kernel", "shape": [3, 3, 144, 1], "dtype": "float32", "quantization": {"dtype": "uint8", "min": -2.284218236511829, "scale": 0.017985970366234873, "original_dtype": "float32"}}, {"name": "block_3_depthwise_BN/gamma", "shape": [144], "dtype": "float32", "quantization": {"dtype": "uint8", "min": 0.3298283815383911, "scale": 0.011649509972217037, "original_dtype": "float32"}}, {"name": "block_3_depthwise_BN/beta", "shape": [144], "dtype": "float32", "quantization": {"dtype": "uint8", "min": -2.8256561410193353, "scale": 0.03105116638482786, "original_dtype": "float32"}}, {"name": "block_3_depthwise_BN/moving_mean", "shape": [144], "dtype": "float32", "quantization": {"dtype": "uint8", "min": -28.714180404064702, "scale": 0.18525277680041743, "original_dtype": "float32"}}, {"name": "block_3_depthwise_BN/moving_variance", "shape": [144], "dtype": "float32", "quantization": {"dtype": "uint8", "min": 0.14828002452850342, "scale": 0.42210258455837474, "original_dtype": "float32"}}, {"name": "block_3_expand/kernel", "shape": [1, 1, 24, 144], "dtype": "float32", "quantization": {"dtype": "uint8", "min": -0.9523457323803621, "scale": 0.007054412832447127, "original_dtype": "float32"}}, {"name": "block_3_expand_BN/gamma", "shape": [144], "dtype": "float32", "quantization": {"dtype": "uint8", "min": 0.2826366126537323, "scale": 0.014016158089918249, "original_dtype": "float32"}}, {"name": "block_3_expand_BN/beta", "shape": [144], "dtype": "float32", "quantization": {"dtype": "uint8", "min": -2.3538480721268, "scale": 0.02504093693751915, "original_dtype": "float32"}}, {"name": "block_3_expand_BN/moving_mean", "shape": [144], "dtype": "float32", "quantization": {"dtype": "uint8", "min": -0.008796306757950314, "scale": 7.583023067198547e-05, "original_dtype": "float32"}}, {"name": "block_3_expand_BN/moving_variance", "shape": [144], "dtype": "float32", "quantization": {"dtype": "uint8", "min": 2.6272966861724854, "scale": 0.13272808205847647, "original_dtype": "float32"}}, {"name": "block_3_project/kernel", "shape": [1, 1, 144, 32], "dtype": "float32", "quantization": {"dtype": "uint8", "min": -0.6863794074339025, "scale": 0.006355364883647245, "original_dtype": "float32"}}, {"name": "block_3_project_BN/gamma", "shape": [32], "dtype": "float32", "quantization": {"dtype": "uint8", "min": 2.484084129333496, "scale": 0.01664571201100069, "original_dtype": "float32"}}, {"name": "block_3_project_BN/beta", "shape": [32], "dtype": "float32", "quantization": {"dtype": "uint8", "min": -0.005942130622033979, "scale": 5.8832976455781976e-05, "original_dtype": "float32"}}, {"name": "block_3_project_BN/moving_mean", "shape": [32], "dtype": "float32", "quantization": {"dtype": "uint8", "min": -3.2429207353030933, "scale": 0.037708380643059224, "original_dtype": "float32"}}, {"name": "block_3_project_BN/moving_variance", "shape": [32], "dtype": "float32", "quantization": {"dtype": "uint8", "min": 0.4967164397239685, "scale": 0.029375186854717777, "original_dtype": "float32"}}, {"name": "block_4_depthwise/depthwise_kernel", "shape": [3, 3, 192, 1], "dtype": "float32", "quantization": {"dtype": "uint8", "min": -4.979864240160175, "scale": 0.03716316597134459, "original_dtype": "float32"}}, {"name": "block_4_depthwise_BN/gamma", "shape": [192], "dtype": "float32", "quantization": {"dtype": "uint8", "min": 0.4036511182785034, "scale": 0.009333235142277737, "original_dtype": "float32"}}, {"name": "block_4_depthwise_BN/beta", "shape": [192], "dtype": "float32", "quantization": {"dtype": "uint8", "min": -2.9051775361977374, "scale": 0.02400973170411353, "original_dtype": "float32"}}, {"name": "block_4_depthwise_BN/moving_mean", "shape": [192], "dtype": "float32", "quantization": {"dtype": "uint8", "min": -5.349441303926356, "scale": 0.04457867753271963, "original_dtype": "float32"}}, {"name": "block_4_depthwise_BN/moving_variance", "shape": [192], "dtype": "float32", "quantization": {"dtype": "uint8", "min": 0.021642984822392464, "scale": 0.04836969071013086, "original_dtype": "float32"}}, {"name": "block_4_expand/kernel", "shape": [1, 1, 32, 192], "dtype": "float32", "quantization": {"dtype": "uint8", "min": -0.40439392749000996, "scale": 0.002868042038936241, "original_dtype": "float32"}}, {"name": "block_4_expand_BN/gamma", "shape": [192], "dtype": "float32", "quantization": {"dtype": "uint8", "min": 0.1312626749277115, "scale": 0.007678004281193603, "original_dtype": "float32"}}, {"name": "block_4_expand_BN/beta", "shape": [192], "dtype": "float32", "quantization": {"dtype": "uint8", "min": -2.609219087338915, "scale": 0.022493267994300993, "original_dtype": "float32"}}, {"name": "block_4_expand_BN/moving_mean", "shape": [192], "dtype": "float32", "quantization": {"dtype": "uint8", "min": -0.0032701678574085236, "scale": 2.4045351892709732e-05, "original_dtype": "float32"}}, {"name": "block_4_expand_BN/moving_variance", "shape": [192], "dtype": "float32", "quantization": {"dtype": "uint8", "min": 1.3640755414962769, "scale": 0.08287530459609686, "original_dtype": "float32"}}, {"name": "block_4_project/kernel", "shape": [1, 1, 192, 32], "dtype": "float32", "quantization": {"dtype": "uint8", "min": -0.4972224621211781, "scale": 0.003429120428421918, "original_dtype": "float32"}}, {"name": "block_4_project_BN/gamma", "shape": [32], "dtype": "float32", "quantization": {"dtype": "uint8", "min": 0.9808117151260376, "scale": 0.019865903199887743, "original_dtype": "float32"}}, {"name": "block_4_project_BN/beta", "shape": [32], "dtype": "float32", "quantization": {"dtype": "uint8", "min": -0.006176024355797791, "scale": 4.863011303777788e-05, "original_dtype": "float32"}}, {"name": "block_4_project_BN/moving_mean", "shape": [32], "dtype": "float32", "quantization": {"dtype": "uint8", "min": -2.7747239393346446, "scale": 0.02010669521256989, "original_dtype": "float32"}}, {"name": "block_4_project_BN/moving_variance", "shape": [32], "dtype": "float32", "quantization": {"dtype": "uint8", "min": 0.13456976413726807, "scale": 0.0034173815858130363, "original_dtype": "float32"}}, {"name": "block_5_depthwise/depthwise_kernel", "shape": [3, 3, 192, 1], "dtype": "float32", "quantization": {"dtype": "uint8", "min": -4.526471190359079, "scale": 0.0325645409378351, "original_dtype": "float32"}}, {"name": "block_5_depthwise_BN/gamma", "shape": [192], "dtype": "float32", "quantization": {"dtype": "uint8", "min": 0.42916548252105713, "scale": 0.008474388777040967, "original_dtype": "float32"}}, {"name": "block_5_depthwise_BN/beta", "shape": [192], "dtype": "float32", "quantization": {"dtype": "uint8", "min": -2.879433744093951, "scale": 0.02341003043978822, "original_dtype": "float32"}}, {"name": "block_5_depthwise_BN/moving_mean", "shape": [192], "dtype": "float32", "quantization": {"dtype": "uint8", "min": -18.277105903625486, "scale": 0.10326048533121744, "original_dtype": "float32"}}, {"name": "block_5_depthwise_BN/moving_variance", "shape": [192], "dtype": "float32", "quantization": {"dtype": "uint8", "min": 0.05469737946987152, "scale": 0.043754019047699724, "original_dtype": "float32"}}, {"name": "block_5_expand/kernel", "shape": [1, 1, 32, 192], "dtype": "float32", "quantization": {"dtype": "uint8", "min": -0.3535099051746668, "scale": 0.0029215694642534444, "original_dtype": "float32"}}, {"name": "block_5_expand_BN/gamma", "shape": [192], "dtype": "float32", "quantization": {"dtype": "uint8", "min": 0.14203865826129913, "scale": 0.007173057338770698, "original_dtype": "float32"}}, {"name": "block_5_expand_BN/beta", "shape": [192], "dtype": "float32", "quantization": {"dtype": "uint8", "min": -1.5888787643582214, "scale": 0.019143117642870137, "original_dtype": "float32"}}, {"name": "block_5_expand_BN/moving_mean", "shape": [192], "dtype": "float32", "quantization": {"dtype": "uint8", "min": -0.007235868771870931, "scale": 5.653022478024165e-05, "original_dtype": "float32"}}, {"name": "block_5_expand_BN/moving_variance", "shape": [192], "dtype": "float32", "quantization": {"dtype": "uint8", "min": 1.7384567260742188, "scale": 0.06378974166570925, "original_dtype": "float32"}}, {"name": "block_5_project/kernel", "shape": [1, 1, 192, 32], "dtype": "float32", "quantization": {"dtype": "uint8", "min": -0.355678585580751, "scale": 0.0028006187841004017, "original_dtype": "float32"}}, {"name": "block_5_project_BN/gamma", "shape": [32], "dtype": "float32", "quantization": {"dtype": "uint8", "min": 0.9190748929977417, "scale": 0.018858842756233965, "original_dtype": "float32"}}, {"name": "block_5_project_BN/beta", "shape": [32], "dtype": "float32", "quantization": {"dtype": "uint8", "min": -0.005500635230804191, "scale": 4.3655835165112626e-05, "original_dtype": "float32"}}, {"name": "block_5_project_BN/moving_mean", "shape": [32], "dtype": "float32", "quantization": {"dtype": "uint8", "min": -1.9170898507623113, "scale": 0.0172710797365974, "original_dtype": "float32"}}, {"name": "block_5_project_BN/moving_variance", "shape": [32], "dtype": "float32", "quantization": {"dtype": "uint8", "min": 0.13418078422546387, "scale": 0.0023325475991940966, "original_dtype": "float32"}}, {"name": "block_6_depthwise/depthwise_kernel", "shape": [3, 3, 192, 1], "dtype": "float32", "quantization": {"dtype": "uint8", "min": -1.9912644554586971, "scale": 0.01659387046215581, "original_dtype": "float32"}}, {"name": "block_6_depthwise_BN/gamma", "shape": [192], "dtype": "float32", "quantization": {"dtype": "uint8", "min": 0.420177161693573, "scale": 0.00659263578115725, "original_dtype": "float32"}}, {"name": "block_6_depthwise_BN/beta", "shape": [192], "dtype": "float32", "quantization": {"dtype": "uint8", "min": -1.4894033544203815, "scale": 0.026129883410883886, "original_dtype": "float32"}}, {"name": "block_6_depthwise_BN/moving_mean", "shape": [192], "dtype": "float32", "quantization": {"dtype": "uint8", "min": -15.642455056134391, "scale": 0.12125934152042164, "original_dtype": "float32"}}, {"name": "block_6_depthwise_BN/moving_variance", "shape": [192], "dtype": "float32", "quantization": {"dtype": "uint8", "min": 0.3505472242832184, "scale": 0.322894887713825, "original_dtype": "float32"}}, {"name": "block_6_expand/kernel", "shape": [1, 1, 32, 192], "dtype": "float32", "quantization": {"dtype": "uint8", "min": -0.6459121858372407, "scale": 0.00512628718918445, "original_dtype": "float32"}}, {"name": "block_6_expand_BN/gamma", "shape": [192], "dtype": "float32", "quantization": {"dtype": "uint8", "min": 0.46143391728401184, "scale": 0.009211587789011936, "original_dtype": "float32"}}, {"name": "block_6_expand_BN/beta", "shape": [192], "dtype": "float32", "quantization": {"dtype": "uint8", "min": -1.8501464619356043, "scale": 0.015417887182796703, "original_dtype": "float32"}}, {"name": "block_6_expand_BN/moving_mean", "shape": [192], "dtype": "float32", "quantization": {"dtype": "uint8", "min": -0.01579304424424966, "scale": 0.00013271465751470303, "original_dtype": "float32"}}, {"name": "block_6_expand_BN/moving_variance", "shape": [192], "dtype": "float32", "quantization": {"dtype": "uint8", "min": 2.7206647396087646, "scale": 0.11472150858710795, "original_dtype": "float32"}}, {"name": "block_6_project/kernel", "shape": [1, 1, 192, 64], "dtype": "float32", "quantization": {"dtype": "uint8", "min": -0.8990953775013195, "scale": 0.00580061533871819, "original_dtype": "float32"}}, {"name": "block_6_project_BN/gamma", "shape": [64], "dtype": "float32", "quantization": {"dtype": "uint8", "min": 0.8708956241607666, "scale": 0.021319844675999063, "original_dtype": "float32"}}, {"name": "block_6_project_BN/beta", "shape": [64], "dtype": "float32", "quantization": {"dtype": "uint8", "min": -0.005802899913168421, "scale": 4.363082641480016e-05, "original_dtype": "float32"}}, {"name": "block_6_project_BN/moving_mean", "shape": [64], "dtype": "float32", "quantization": {"dtype": "uint8", "min": -6.102350981095258, "scale": 0.04327908497230679, "original_dtype": "float32"}}, {"name": "block_6_project_BN/moving_variance", "shape": [64], "dtype": "float32", "quantization": {"dtype": "uint8", "min": 0.17547668516635895, "scale": 0.04159654489919251, "original_dtype": "float32"}}, {"name": "block_7_depthwise/depthwise_kernel", "shape": [3, 3, 384, 1], "dtype": "float32", "quantization": {"dtype": "uint8", "min": -3.284042624866261, "scale": 0.022965333041022804, "original_dtype": "float32"}}, {"name": "block_7_depthwise_BN/gamma", "shape": [384], "dtype": "float32", "quantization": {"dtype": "uint8", "min": 0.254349946975708, "scale": 0.009496442009420956, "original_dtype": "float32"}}, {"name": "block_7_depthwise_BN/beta", "shape": [384], "dtype": "float32", "quantization": {"dtype": "uint8", "min": -3.6179439067840575, "scale": 0.021157566706339517, "original_dtype": "float32"}}, {"name": "block_7_depthwise_BN/moving_mean", "shape": [384], "dtype": "float32", "quantization": {"dtype": "uint8", "min": -21.468313248017257, "scale": 0.09457406717188219, "original_dtype": "float32"}}, {"name": "block_7_depthwise_BN/moving_variance", "shape": [384], "dtype": "float32", "quantization": {"dtype": "uint8", "min": 0.0009199814521707594, "scale": 0.05132895948196414, "original_dtype": "float32"}}, {"name": "block_7_expand/kernel", "shape": [1, 1, 64, 384], "dtype": "float32", "quantization": {"dtype": "uint8", "min": -0.3262585808249081, "scale": 0.0023138906441482845, "original_dtype": "float32"}}, {"name": "block_7_expand_BN/gamma", "shape": [384], "dtype": "float32", "quantization": {"dtype": "uint8", "min": 0.1271103471517563, "scale": 0.005770611821436415, "original_dtype": "float32"}}, {"name": "block_7_expand_BN/beta", "shape": [384], "dtype": "float32", "quantization": {"dtype": "uint8", "min": -1.5297292115641574, "scale": 0.01936366090587541, "original_dtype": "float32"}}, {"name": "block_7_expand_BN/moving_mean", "shape": [384], "dtype": "float32", "quantization": {"dtype": "uint8", "min": -0.0028730177119666456, "scale": 2.0232519098356658e-05, "original_dtype": "float32"}}, {"name": "block_7_expand_BN/moving_variance", "shape": [384], "dtype": "float32", "quantization": {"dtype": "uint8", "min": 0.8731621503829956, "scale": 0.023574257364460068, "original_dtype": "float32"}}, {"name": "block_7_project/kernel", "shape": [1, 1, 384, 64], "dtype": "float32", "quantization": {"dtype": "uint8", "min": -0.5302280009961596, "scale": 0.004047541992337096, "original_dtype": "float32"}}, {"name": "block_7_project_BN/gamma", "shape": [64], "dtype": "float32", "quantization": {"dtype": "uint8", "min": 0.6177983283996582, "scale": 0.020012165518367993, "original_dtype": "float32"}}, {"name": "block_7_project_BN/beta", "shape": [64], "dtype": "float32", "quantization": {"dtype": "uint8", "min": -0.004176882530252139, "scale": 3.5099853195396126e-05, "original_dtype": "float32"}}, {"name": "block_7_project_BN/moving_mean", "shape": [64], "dtype": "float32", "quantization": {"dtype": "uint8", "min": -0.8779203302720013, "scale": 0.013301823185939414, "original_dtype": "float32"}}, {"name": "block_7_project_BN/moving_variance", "shape": [64], "dtype": "float32", "quantization": {"dtype": "uint8", "min": 0.11792795360088348, "scale": 0.006540518473176395, "original_dtype": "float32"}}, {"name": "block_8_depthwise/depthwise_kernel", "shape": [3, 3, 384, 1], "dtype": "float32", "quantization": {"dtype": "uint8", "min": -3.421118626875036, "scale": 0.02693794194389792, "original_dtype": "float32"}}, {"name": "block_8_depthwise_BN/gamma", "shape": [384], "dtype": "float32", "quantization": {"dtype": "uint8", "min": 0.33077195286750793, "scale": 0.016062569968840656, "original_dtype": "float32"}}, {"name": "block_8_depthwise_BN/beta", "shape": [384], "dtype": "float32", "quantization": {"dtype": "uint8", "min": -6.190862871618831, "scale": 0.03275588820962345, "original_dtype": "float32"}}, {"name": "block_8_depthwise_BN/moving_mean", "shape": [384], "dtype": "float32", "quantization": {"dtype": "uint8", "min": -9.388202382069007, "scale": 0.045796109180824426, "original_dtype": "float32"}}, {"name": "block_8_depthwise_BN/moving_variance", "shape": [384], "dtype": "float32", "quantization": {"dtype": "uint8", "min": 0.018067393451929092, "scale": 0.06557557709953364, "original_dtype": "float32"}}, {"name": "block_8_expand/kernel", "shape": [1, 1, 64, 384], "dtype": "float32", "quantization": {"dtype": "uint8", "min": -0.4981741568621467, "scale": 0.00345954275598713, "original_dtype": "float32"}}, {"name": "block_8_expand_BN/gamma", "shape": [384], "dtype": "float32", "quantization": {"dtype": "uint8", "min": 0.08741652965545654, "scale": 0.005673127080879959, "original_dtype": "float32"}}, {"name": "block_8_expand_BN/beta", "shape": [384], "dtype": "float32", "quantization": {"dtype": "uint8", "min": -1.4621325745302087, "scale": 0.014476560143863454, "original_dtype": "float32"}}, {"name": "block_8_expand_BN/moving_mean", "shape": [384], "dtype": "float32", "quantization": {"dtype": "uint8", "min": -0.005369761892977882, "scale": 3.781522459843579e-05, "original_dtype": "float32"}}, {"name": "block_8_expand_BN/moving_variance", "shape": [384], "dtype": "float32", "quantization": {"dtype": "uint8", "min": 1.082456350326538, "scale": 0.04236794359543744, "original_dtype": "float32"}}, {"name": "block_8_project/kernel", "shape": [1, 1, 384, 64], "dtype": "float32", "quantization": {"dtype": "uint8", "min": -0.2864459255162407, "scale": 0.0022554797284743363, "original_dtype": "float32"}}, {"name": "block_8_project_BN/gamma", "shape": [64], "dtype": "float32", "quantization": {"dtype": "uint8", "min": 0.6630716323852539, "scale": 0.01262059772715849, "original_dtype": "float32"}}, {"name": "block_8_project_BN/beta", "shape": [64], "dtype": "float32", "quantization": {"dtype": "uint8", "min": -0.004904859973227277, "scale": 3.6332296097979825e-05, "original_dtype": "float32"}}, {"name": "block_8_project_BN/moving_mean", "shape": [64], "dtype": "float32", "quantization": {"dtype": "uint8", "min": -1.1028786023457844, "scale": 0.00810940148783665, "original_dtype": "float32"}}, {"name": "block_8_project_BN/moving_variance", "shape": [64], "dtype": "float32", "quantization": {"dtype": "uint8", "min": 0.08486074954271317, "scale": 0.001586325466632843, "original_dtype": "float32"}}, {"name": "block_9_depthwise/depthwise_kernel", "shape": [3, 3, 384, 1], "dtype": "float32", "quantization": {"dtype": "uint8", "min": -2.8299621890572944, "scale": 0.019789945378023036, "original_dtype": "float32"}}, {"name": "block_9_depthwise_BN/gamma", "shape": [384], "dtype": "float32", "quantization": {"dtype": "uint8", "min": 0.37345051765441895, "scale": 0.00773468672060499, "original_dtype": "float32"}}, {"name": "block_9_depthwise_BN/beta", "shape": [384], "dtype": "float32", "quantization": {"dtype": "uint8", "min": -4.168074959399654, "scale": 0.025108885297588274, "original_dtype": "float32"}}, {"name": "block_9_depthwise_BN/moving_mean", "shape": [384], "dtype": "float32", "quantization": {"dtype": "uint8", "min": -4.616242801441866, "scale": 0.028851517509011663, "original_dtype": "float32"}}, {"name": "block_9_depthwise_BN/moving_variance", "shape": [384], "dtype": "float32", "quantization": {"dtype": "uint8", "min": 0.08270562440156937, "scale": 0.021505469405183605, "original_dtype": "float32"}}, {"name": "block_9_expand/kernel", "shape": [1, 1, 64, 384], "dtype": "float32", "quantization": {"dtype": "uint8", "min": -0.31728072201504426, "scale": 0.0030217211620480406, "original_dtype": "float32"}}, {"name": "block_9_expand_BN/gamma", "shape": [384], "dtype": "float32", "quantization": {"dtype": "uint8", "min": 0.22025920450687408, "scale": 0.00708263522269679, "original_dtype": "float32"}}, {"name": "block_9_expand_BN/beta", "shape": [384], "dtype": "float32", "quantization": {"dtype": "uint8", "min": -1.380420608146518, "scale": 0.0119001776564355, "original_dtype": "float32"}}, {"name": "block_9_expand_BN/moving_mean", "shape": [384], "dtype": "float32", "quantization": {"dtype": "uint8", "min": -0.006358285394369387, "scale": 4.8536529728010586e-05, "original_dtype": "float32"}}, {"name": "block_9_expand_BN/moving_variance", "shape": [384], "dtype": "float32", "quantization": {"dtype": "uint8", "min": 1.5383261442184448, "scale": 0.04634298483530681, "original_dtype": "float32"}}, {"name": "block_9_project/kernel", "shape": [1, 1, 384, 64], "dtype": "float32", "quantization": {"dtype": "uint8", "min": -0.49887640522975546, "scale": 0.0032820816133536544, "original_dtype": "float32"}}, {"name": "block_9_project_BN/gamma", "shape": [64], "dtype": "float32", "quantization": {"dtype": "uint8", "min": 0.6962518095970154, "scale": 0.012095615209317675, "original_dtype": "float32"}}, {"name": "block_9_project_BN/beta", "shape": [64], "dtype": "float32", "quantization": {"dtype": "uint8", "min": -0.00399385870927397, "scale": 2.8941005139666446e-05, "original_dtype": "float32"}}, {"name": "block_9_project_BN/moving_mean", "shape": [64], "dtype": "float32", "quantization": {"dtype": "uint8", "min": -1.7124339790905223, "scale": 0.01057058011784273, "original_dtype": "float32"}}, {"name": "block_9_project_BN/moving_variance", "shape": [64], "dtype": "float32", "quantization": {"dtype": "uint8", "min": 0.07623931020498276, "scale": 0.0011270010296036215, "original_dtype": "float32"}}, {"name": "bn_Conv1/gamma", "shape": [32], "dtype": "float32", "quantization": {"dtype": "uint8", "min": 0.15859852731227875, "scale": 0.016216956458839717, "original_dtype": "float32"}}, {"name": "bn_Conv1/beta", "shape": [32], "dtype": "float32", "quantization": {"dtype": "uint8", "min": -6.16716075224035, "scale": 0.04282750522389132, "original_dtype": "float32"}}, {"name": "bn_Conv1/moving_mean", "shape": [32], "dtype": "float32", "quantization": {"dtype": "uint8", "min": -0.2388407318615446, "scale": 0.0022321563725378, "original_dtype": "float32"}}, {"name": "bn_Conv1/moving_variance", "shape": [32], "dtype": "float32", "quantization": {"dtype": "uint8", "min": 3.907289699258179e-36, "scale": 0.005602688415377748, "original_dtype": "float32"}}, {"name": "dense/kernel", "shape": [939, 128], "dtype": "float32", "quantization": {"dtype": "uint8", "min": -0.08893648286660512, "scale": 0.0007473654022403792, "original_dtype": "float32"}}, {"name": "dense/bias", "shape": [128], "dtype": "float32", "quantization": {"dtype": "uint8", "min": -0.006273646605704391, "scale": 2.4994607990854146e-05, "original_dtype": "float32"}}, {"name": "dense_1/kernel", "shape": [128, 64], "dtype": "float32", "quantization": {"dtype": "uint8", "min": -0.19100089634166045, "scale": 0.0014692376641666188, "original_dtype": "float32"}}, {"name": "dense_1/bias", "shape": [64], "dtype": "float32", "quantization": {"dtype": "uint8", "min": -0.02249951846897602, "scale": 8.73965612959628e-05, "original_dtype": "float32"}}, {"name": "dense_2/kernel", "shape": [1344, 128], "dtype": "float32", "quantization": {"dtype": "uint8", "min": -0.12335078564344668, "scale": 0.0009416090507133334, "original_dtype": "float32"}}, {"name": "dense_2/bias", "shape": [128], "dtype": "float32", "quantization": {"dtype": "uint8", "min": -0.009125643968582153, "scale": 8.946709773119758e-05, "original_dtype": "float32"}}, {"name": "dense_3/kernel", "shape": [128, 5], "dtype": "float32", "quantization": {"dtype": "uint8", "min": -0.24143272533136256, "scale": 0.0018152836491079891, "original_dtype": "float32"}}, {"name": "dense_3/bias", "shape": [5], "dtype": "float32", "quantization": {"dtype": "uint8", "min": -0.012455260885112427, "scale": 9.655240996211183e-05, "original_dtype": "float32"}}, {"name": "expanded_conv_depthwise/depthwise_kernel", "shape": [3, 3, 32, 1], "dtype": "float32", "quantization": {"dtype": "uint8", "min": -25.74281422484155, "scale": 0.19355499417174096, "original_dtype": "float32"}}, {"name": "expanded_conv_depthwise_BN/gamma", "shape": [32], "dtype": "float32", "quantization": {"dtype": "uint8", "min": -0.09372427218100604, "scale": 0.007209559398538926, "original_dtype": "float32"}}, {"name": "expanded_conv_depthwise_BN/beta", "shape": [32], "dtype": "float32", "quantization": {"dtype": "uint8", "min": -1.36798802170099, "scale": 0.018739561941109453, "original_dtype": "float32"}}, {"name": "expanded_conv_depthwise_BN/moving_mean", "shape": [32], "dtype": "float32", "quantization": {"dtype": "uint8", "min": -13.662699740540749, "scale": 0.09972773533241422, "original_dtype": "float32"}}, {"name": "expanded_conv_depthwise_BN/moving_variance", "shape": [32], "dtype": "float32", "quantization": {"dtype": "uint8", "min": 3.908455938312904e-36, "scale": 1.6299066281786152, "original_dtype": "float32"}}, {"name": "expanded_conv_project/kernel", "shape": [1, 1, 32, 16], "dtype": "float32", "quantization": {"dtype": "uint8", "min": -1.2893707537183574, "scale": 0.008831306532317517, "original_dtype": "float32"}}, {"name": "expanded_conv_project_BN/gamma", "shape": [16], "dtype": "float32", "quantization": {"dtype": "uint8", "min": 2.637812614440918, "scale": 0.009855462990555109, "original_dtype": "float32"}}, {"name": "expanded_conv_project_BN/beta", "shape": [16], "dtype": "float32", "quantization": {"dtype": "uint8", "min": -0.03885560184717179, "scale": 0.0004466161131858826, "original_dtype": "float32"}}, {"name": "expanded_conv_project_BN/moving_mean", "shape": [16], "dtype": "float32", "quantization": {"dtype": "uint8", "min": -4.357224674785838, "scale": 0.029243118622723746, "original_dtype": "float32"}}, {"name": "expanded_conv_project_BN/moving_variance", "shape": [16], "dtype": "float32", "quantization": {"dtype": "uint8", "min": 0.21818426251411438, "scale": 0.0032110652502845317, "original_dtype": "float32"}}]}]}