…
train: C:\Users\ohxua\Documents\FYP 2 Training\OG Vision AR Project\face_shape_detector\dataset\preprocessed_split\images\train... found 3200 images in 5 classes  
val: C:\Users\ohxua\Documents\FYP 2 Training\OG Vision AR Project\face_shape_detector\dataset\preprocessed_split\images\val... found 799 images in 5 classes  
test: C:\Users\ohxua\Documents\FYP 2 Training\OG Vision AR Project\face_shape_detector\dataset\preprocessed_split\images\test... found 1000 images in 5 classes  
Overriding model.yaml nc=1000 with nc=5

                   from  n    params  module                                       arguments                     
  0                  -1  1      1392  ultralytics.nn.modules.conv.Conv             [3, 48, 3, 2]                 
  1                  -1  1     41664  ultralytics.nn.modules.conv.Conv             [48, 96, 3, 2]                
  2                  -1  2    111360  ultralytics.nn.modules.block.C2f             [96, 96, 2, True]             
  3                  -1  1    166272  ultralytics.nn.modules.conv.Conv             [96, 192, 3, 2]               
  4                  -1  4    813312  ultralytics.nn.modules.block.C2f             [192, 192, 4, True]           
  5                  -1  1    664320  ultralytics.nn.modules.conv.Conv             [192, 384, 3, 2]              
  6                  -1  4   3248640  ultralytics.nn.modules.block.C2f             [384, 384, 4, True]           
  7                  -1  1   2655744  ultralytics.nn.modules.conv.Conv             [384, 768, 3, 2]              
  8                  -1  2   7084032  ultralytics.nn.modules.block.C2f             [768, 768, 2, True]           
  9                  -1  1    992005  ultralytics.nn.modules.head.Classify         [768, 5]                      
YOLOv8m-cls summary: 80 layers, 15,778,741 parameters, 15,778,741 gradients, 41.9 GFLOPs
Transferred 228/230 items from pretrained weights
train: Fast image access  (ping: 0.30.0 ms, read: 3.74.4 MB/s, size: 22.3 KB)
train: Scanning C:\Users\ohxua\Documents\FYP 2 Training\OG Vision AR Project\face_shape_detector\dataset\preprocessed_split\i
train: Scanning C:\Users\ohxua\Documents\FYP 2 Training\OG Vision AR Project\face_shape_detector\dataset\preprocessed_split\i
…
